models/shapeworld/language_model.pt (torch_old, 215723 bytes, 7 tensors)

weight f4 [15, 50]
-0.45712343 -1.2646239 0.4414457 -0.5520968 2.2822523 0.7939366 2.2235918 -0.4562868
-0.7108642 -1.6973579 0.79231477 -0.8780486 1.449233 0.7427228 0.46047956 -0.33295858
0.023249652 1.5931301 -0.35674426 0.027906233 -0.38296804 0.010973814 -0.27525842 -0.7801249
1.1726481 -2.0965474 2.130333 -0.2809049 -1.8273598 -1.125052 -0.15520555 1.6511744
-0.06971062 1.2063655 -1.1457205 0.15387762 1.446942 -0.5324423 1.0070951 -0.91810095
1.2044493 -0.4194265 0.40825385 -0.46835044 1.0330133 -0.47424933 -0.44109848 0.08222298
-0.24805862 0.05362483 -0.043125954 0.5510809 -0.3184681 0.8348511 -2.0232801 1.0744953
0.0074025644 -3.172565 -0.28265965 -0.36576176 -0.59604883 -0.27855128 0.9091914 0.7405369
1.2516952 0.1979978 -0.7259228 -0.4461107 -0.63532174 1.54966 0.18025139 -1.0422865
-0.29349023 -1.2980921 0.05489147 0.17325443 0.7215643 1.0353053 -0.06996817 0.50344676
0.51550287 -0.63221705 -1.1828449 -0.8923677 0.007915323 1.2185827 -0.62607455 -1.3424331
-0.041963615 -0.7236268 -0.7121579 1.9977612 -1.5846483 -0.19016056 0.81418526 -1.0853108
0.93102545 1.3468832 -2.2612014 1.012056 0.6296594 0.29062974 0.47182968 -0.38696712
1.6872165 1.724123 0.17366305 -0.45349282 -1.0948092 2.2176044 -2.088078 -0.14439611
1.0701553 0.9313611 2.3834116 -0.16637243 -1.6278715 0.43148193 -0.77013886 0.24450669
0.92683125 0.2111968 -0.32343644 -0.4245408 -1.6954017 -1.2939415 -1.6582401 0.86914176
-0.9708904 0.78346497 -0.16950959 2.2876 2.0377207 -0.42167485 0.41900885 -0.027366735
1.115232 -0.5529484 -0.020765439 -0.023734782 -0.16734779 -1.1809716 -0.09367092 -2.7145808
-0.58006066 -0.248986 -1.6497811 0.8308047 1.8226019 0.4810667 0.6961712 0.4576598
-0.8020721 -0.54304916 1.1555375 0.8387403 0.48447877 -0.058659546 -0.16148095 0.48333827
-0.1322956 0.45886147 -0.5559686 0.2932918 0.5290818 0.0623273 0.5150093 -0.7627994
-1.1399627 -0.5095707 -0.5556594 -0.99430394 0.8158141 -1.9431471 1.480649 1.4903823
0.90566623 0.33526543 -1.141089 -0.28128326 -0.30086517 -0.83150375 2.4900634 2.1131432
-1.6699469 -0.47562513 -0.44415045 -0.6689226 1.7813624 1.4946988 0.41053382 0.026097314
0.11890534 -0.39935625 -0.5542924 0.22722803 0.63903743 2.073446 0.16104013 -0.12146237
-0.430739 1.7258347 0.11330646 1.1719048 0.1642968 -0.8821161 -1.930239 -1.9534771
0.7474211 -0.14241444 1.0343189 -0.68494356 0.42506236 -0.78480965 0.1621094 1.6229905
1.215926 0.34543002 0.3521808 -0.38438228 0.46412605 0.3016964 1.4976321 0.58377343
-2.7283013 0.69269246 0.6380608 -1.2230843 -0.71192425 0.39450616 0.98521614 1.5708891
-0.59674776 1.7437587 0.21107598 0.028886639 0.5588973 -0.42721343 -0.8620661 -0.0582482
0.7690073 -0.9376565 0.7704451 -0.71401775 -0.9108656 -1.0722524 -0.4954857 0.057279464
0.46398818 -0.9574073 -1.419999 0.7911405 -1.3030143 1.0022897 -1.2379284 0.7658677
00000000: 150c eabe 32df a1bf 2c05 e23e 3756 0dbf
00000010: 6c10 1240 6e3f 4b3f 544f 0e40 6c9e e9be
00000020: 32fb 35bf 0643 d9bf 24d5 4a3f cbc7 60bf
00000030: 7880 b93f 1523 3e3f fac3 eb3e 8c79 aabe
00000040: 0e76 be3c b0eb cb3f 2fa7 b6be 9d9b e43c
00000050: 6314 c4be 83cb 333c acee 8cbe 44b6 47bf
00000060: 5519 963f d52d 06c0 6057 0840 c4d2 8fbe
00000070: ede6 e9bf b401 90bf 34ee 1ebe af59 d33f
00000080: 71c4 8ebd 2f6a 9a3f f8a6 92bf 1892 1d3e
00000090: 6535 b93f 234e 08bf 7ee8 803f aa08 6bbf
000000a0: 652b 9a3f 12bf d6be a606 d13e a1cb efbe
000000b0: c839 843f cfd0 f2be a9d7 e1be 8664 a83d
000000c0: 1403 7ebe b6a5 5b3d d7a4 30bd a313 0d3f
000000d0: 400e a3be cdb8 553f 6c7d 01c0 1089 893f
000000e0: 3691 f23b 4e0b 4bc0 c4b8 90be 2045 bbbe
000000f0: a896 18bf 469e 8ebe c5c0 683f d493 3d3f
00000100: 8c37 a03f efbf 4a3e 14d6 39bf 9f68 e4be
00000110: 72a4 22bf 425b c63f d293 383e a569 85bf
00000120: 5a44 96be e227 a6bf e1d5 603d 9c69 313e
00000130: 70b8 383f e284 843f 794b 8fbd e3e1 003f
00000140: fff7 033f fad8 21bf 7667 97bf 3672 64bf
00000150: 45af 013c 85fa 9b3f 6c46 20bf d9d4 abbf
00000160: 0ae2 2bbd 9b3f 39bf fb4f 36bf a4b6 ff3f
00000170: c1d5 cabf 73b9 42be 726e 503f 77eb 8abf
00000180: af57 6e3f ab66 ac3f 86b7 10c0 0d8b 813f
00000190: 5c31 213f 6ccd 943e a993 f13e 8e20 c6be
000001a0: b6f6 d73f 10b0 dc3f bad4 313e 3630 e8be
000001b0: b522 8cbf 3bed 0d40 12a3 05c0 93dc 13be
000001c0: d9fa 883f ae6d 6e3f d189 1840 895d 2abe
000001d0: 185e d0bf 33eb dc3e d227 45bf f65f 7a3e
000001e0: d044 6d3f f943 583e 7699 a5be 695d d9be
000001f0: ec02 d9bf e09f a5bf 3641 d4bf 1380 5e3f
00000200: 468c 78bf 2991 483f ec93 2dbe 0a68 1240
00000210: 046a 0240 c4e5 d7be 5488 d63e 3430 e0bc
00000220: ecbf 8e3f 078e 0dbf 481c aabc 726f c2bc
00000230: 385d 2bbe 142a 97bf 8ad6 bfbd b1bb 2dc0
00000240: db7e 14bf 30f6 7ebe 072c d3bf 9eaf 543f
00000250: 054b e93f 604e f63e 4738 323f 6352 ea3e
00000260: 9954 4dbf 4505 0bbf a7e8 933f afb7 563f
00000270: 9a0d f83e fe44 70bd 435b 25be 1d78 f73e
00000280: 7f78 07be e4ef ea3e f553 0ebf 582a 963e
00000290: e871 073f e94a 7f3d a6d7 033f d246 43bf
000002a0: 4cea 91bf 3a73 02bf b23f 0ebf b48a 7ebf
000002b0: 31d9 503f 0bb9 f8bf e885 bd3f d9c4 be3f
000002c0: bed9 673f e9a7 ab3e 340f 92bf 5c04 90be
000002d0: 000b 9abe 6edd 54bf 335d 1f40 bd3d 0740
000002e0: d2c0 d5bf 2385 f3be b067 e3be 833e 2bbf
000002f0: af03 e43f 4a52 bf3f 7d31 d23e 09ca d53c
00000300: a584 f33d 6c78 ccbe 1be6 0dbf 77ae 683e
00000310: f597 233f 57b3 0440 b4e7 243e 43c1 f8bd
00000320: d289 dcbe 27e8 dc3f 380d e83d fa00 963f
00000330: 6c3d 283e 5cd2 61bf 1212 f7bf 8a0b fabf
00000340: fd56 3f3f 17d5 11be 9064 843f 7658 2fbf
00000350: c6a1 d93e 49e9 48bf 0200 263e 27be cf3f
00000360: 77a3 9b3f 34dc b03e 0b51 b43e c1cd c4be
00000370: eea1 ed3e f377 9a3e 69b2 bf3f 2d72 153f
00000380: 7d9c 2ec0 4b54 313f f457 233f 078e 9cbf
00000390: ab40 36bf b6fc c93e 2037 7c3f e512 c93f
000003a0: 76c4 18bf 7c33 df3f 4d24 583e aca3 ec3c
000003b0: e513 0f3f b8bb dabe 5db0 5cbf aa95 6ebd
000003c0: aadd 443f 420a 70bf e43b 453f dec9 36bf
000003d0: 7d2e 69bf 913f 89bf 4db0 fdbe df9d 6a3d
000003e0: dc8f ed3e a518 75bf 87c2 b5bf 2f88 4a3f
000003f0: 2cc9 a6bf 074b 803f 7074 9ebf e80f 443f

weight_ih_l0 f4 [300, 50]
-0.024952719 -0.009375412 0.091858104 0.06561578 0.034488093 0.01368391 0.05737743 -0.07458226
-0.048627418 -0.038432166 -0.056357067 0.07895279 0.10368703 0.06832455 0.09358941 0.061499596
-0.03977421 0.06293651 0.09020079 -0.11405877 0.02857323 0.07207905 0.07226232 -0.11705743
0.069948405 0.00154619 0.018265946 -0.10653937 0.04696766 -0.0038182493 -0.064528555 -0.042209405
-0.075049825 0.117365345 0.00865144 0.041096244 0.071467504 -0.05366973 0.0812897 -0.05484503
0.037523143 -0.15238212 0.03991079 -0.026719246 0.009000013 0.012566557 0.019186024 -0.051227424
0.009963192 -0.056519702 0.07642902 0.036863737 0.038121164 0.0033186642 -0.020634342 0.103429705
0.0042906953 0.014132512 -0.016426506 -0.09581107 -0.03983037 0.0471679 -0.007463319 0.12091637
0.09060271 -0.022523753 -0.012005121 0.07182746 -0.07076439 -0.10477575 0.021332433 0.05240275
-0.057238188 -0.029674817 -0.060615912 0.063046925 -0.032346018 -0.030119289 0.067791596 0.024531838
-0.0088716205 0.09394324 -0.10432607 0.13456294 0.087890714 0.16818503 0.12221853 -0.1688834
0.03649687 -0.025269197 -0.04593479 -0.25321928 0.23726703 -0.12300886 0.054993592 0.059349418
0.018966543 0.087275974 -0.137682 -0.10901812 -0.040353734 -0.07625429 0.04808047 0.07402397
0.04757431 -0.01707036 0.022147117 0.048613373 0.06178629 -0.041230436 -0.019831143 -0.06342929
-0.07489314 -0.012690342 -0.03439487 0.05564717 -0.06608814 0.018383015 -0.103421845 0.047206603
0.08094687 -0.09427857 0.0523848 0.06309007 0.08754251 -0.01904107 0.0038711347 0.098799855
0.03616908 0.04630483 -0.047340866 0.048989847 0.0030671298 -0.08441798 -0.0028539803 -0.034765344
-0.012654737 -0.017201658 0.047908075 0.100817464 0.09280953 -0.11549439 0.0009431068 0.045049164
-0.0076112975 -0.093356736 -0.11014884 0.035303254 -0.058444142 -0.037968453 -0.008126309 -0.064795665
-0.18409486 -0.19776411 -0.03172873 -0.012746822 0.049305003 -0.05684754 0.10061976 0.01560373
0.08448935 -0.18429361 0.061384436 0.11498673 -0.0688861 0.109298244 0.048829656 0.06544023
0.022541335 0.25794294 -0.0050437846 0.05675987 -0.0770146 0.086027496 0.18034372 -0.10417001
-0.074136995 -0.009742816 -0.08871772 0.00014355347 0.09308067 -0.045035057 0.15046208 -0.09467497
-0.12055752 -0.09698326 -0.07008055 0.036292337 0.058194432 -0.05907023 0.008895811 0.28372097
-0.24572818 0.19556917 -0.033842765 -0.15376493 0.007295438 0.04549563 -0.009521215 0.090293765
-0.033176597 -0.07844335 -0.0006434707 -0.10401748 0.06454228 0.08862771 0.0892455 -0.008946186
-0.01630277 -0.06451415 0.03933355 0.030684775 0.08946538 0.055081602 -0.028421449 -0.02414749
0.089515544 0.042757157 0.0063242437 0.093812935 -0.09410305 0.039687447 -0.08305322 -0.025974436
0.10180367 -0.09491369 0.028376643 0.085818425 -0.04432128 0.04205892 -0.10114526 0.12109618
0.03522224 -0.04644759 0.06902163 -0.0030557197 0.0385811 0.034104086 0.052241113 0.028560188
-0.008646774 -0.12624915 0.05674495 -0.04398557 0.060803678 -0.06337259 -0.15403908 -0.040432684
-0.06906554 -0.04046565 -0.007861346 0.04488895 -0.06464271 0.019126767 0.014577257 0.005570814
00000000: a569 ccbc 549b 19bc 1a20 bc3d 9161 863d
00000010: 6343 0d3d 7a32 603c 9904 6b3d 95be 98bd
00000020: 8b2d 47bd 0c6b 1dbd abd6 66bd 00b2 a13d
00000030: de59 d43d beed 8b3d ceab bf3d 00e7 7b3d
00000040: 48ea 22bd dbe4 803d 31bb b83d a597 e9bd
00000050: 6812 ea3c 2e9e 933d 44fe 933d cebb efbd
00000060: 1c41 8f3d 87a9 ca3a 77a2 953c 5031 dabd
00000070: 2961 403d 983b 7abb 8c27 84bd c5e3 2cbd
00000080: b9b3 99bd 3e5d f03d c5be 0d3c 8954 283d
00000090: 8e5d 923d cad4 5bbd 377b a63d 2fa5 60bd
000000a0: deb1 193d 0f0a 1cbe 7f79 233d 52e2 dabc
000000b0: ca74 133c f6e3 4d3c 022c 9d3c d9d3 51bd
000000c0: a83c 233c 3481 67bd d186 9c3d 6efe 163d
000000d0: f024 1c3d f27d 593b 5a09 a9bc f4d2 d33d
000000e0: f698 8c3b 0d8c 673c e190 86bc 9838 c4bd
000000f0: 2c25 23bd 2133 413d dc8e f4bb 00a3 f73d
00000100: ea8d b93d bc83 b8bc 21b1 44bc 461a 933d
00000110: ecec 90bd ab94 d6bd 5bc1 ae3c 44a4 563d
00000120: 9772 6abd 9a18 f3bc 6448 78bd bf1e 813d
00000130: 427d 04bd babc f6bc 52d6 8a3d fef6 c83c
00000140: 465a 11bc 5065 c03d e8a8 d5bd deca 093e
00000150: 0c00 b43d b238 2c3e b54d fa3d c5ef 2cbe
00000160: be7d 153d 5901 cfbc 1e26 3cbd f5a5 81be
00000170: 21f6 723e 12ec fbbd f640 613d 6018 733d
00000180: b95f 9b3c bfbd b23d 83fc 0cbe e444 dfbd
00000190: f549 25bd 362b 9cbd 07f0 443d e199 973d
000001a0: 48dd 423d 24d7 8bbc df6d b53c d11e 473d
000001b0: 9f13 7d3d 3fe1 28bd ec74 a2bc 37e7 81bd
000001c0: 9361 99bd 27eb 4fbc a3e1 0cbd 49ee 633d
000001d0: 3859 87bd fa97 963c d5ce d3bd b65b 413d
000001e0: 79c7 a53d 1f15 c1bd 7291 563d 5e35 813d
000001f0: 7d49 b33d 05fc 9bbc ddb2 7d3b 9457 ca3d
00000200: 0726 143d 22aa 3d3d 7fe8 41bd 94a9 483d
00000210: e601 493b 55e3 acbd d809 3bbb 1b66 0ebd
00000220: d055 4fbc 7eea 8cbc 423b 443d 6379 ce3d
00000230: ec12 be3d 5388 ecbd d33a 773a 7985 383d
00000240: 3168 f9bb d131 bfbd b795 e1bd 259a 103d
00000250: 2063 6fbd cf84 1bbd 3624 05bc 97b3 84bd
00000260: 5d83 3cbe ad82 4abe fcf5 01bd 0cd8 50bc
00000270: 0bf4 493d f7d8 68bd bc11 ce3d caa6 7f3c
00000280: c108 ad3d 77b7 3cbe 3f6e 7b3d 2a7e eb3d
00000290: 2814 8dbd c2d7 df3d 9b01 483d 8705 863d
000002a0: 9ba8 b83c 1911 843e 5546 a5bb 0a7d 683d
000002b0: d5b9 9dbd 2f2f b03d 06ac 383e 1657 d5bd
000002c0: 23d5 97bd 55a0 1fbc a3b1 b5bd d786 1639
000002d0: 14a1 be3d ae76 38bd bb12 1a3e f3e4 c1bd
000002e0: dce6 f6bd 299f c6bd 6486 8fbd 46a7 143d
000002f0: 495d 6e3d a0f3 71bd bcbf 113c e043 913e
00000300: 2ba0 7bbe 4943 483e b69e 0abd 8e74 1dbe
00000310: 920e ef3b a059 3a3d dffe 1bbc f0eb b83d
00000320: 2fe4 07bd e8a6 a0bd 96ae 28ba 1e07 d5bd
00000330: be2e 843d 7282 b53d 58c6 b63d 0693 12bc
00000340: 638d 85bc ff1f 84bd 371c 213d a35e fb3c
00000350: a039 b73d 3f9d 613d 19d4 e8bc f5d0 c5bc
00000360: ed53 b73d 2122 2f3d 9a3b cf3b ff20 c03d
00000370: 1ab9 c0bd 4e8f 223d ce17 aabd 57c8 d4bc
00000380: 717e d03d 1c62 c2bd 2276 e83c 92c1 af3d
00000390: 3b8a 35bd f945 2c3d 3f25 cfbd 4601 f83d
000003a0: 3245 103d d43f 3ebd 365b 8d3d 7842 48bb
000003b0: 3707 1e3d bab0 0b3d c7fa 553d 0ef7 e93c
000003c0: 33ab 0dbc 7547 01be 656d 683d 372a 34bd
000003d0: 470d 793d 7dc9 81bd 6cbc 1dbe be9c 25bd
000003e0: 3c72 8dbd 4fbf 25bd e0cc 00bc 7add 373d
000003f0: 6663 84bd bdaf 9c3c 73d5 6e3c 608b b63b

weight_hh_l0 f4 [300, 100]
0.014880149 0.030739853 0.109183595 0.10246258 -0.05810587 0.003563353 0.082808 -0.054683913
-0.013263546 -0.040015187 0.04684476 -0.051054303 0.037631597 0.093646586 0.047467947 -0.06665995
-0.09720667 -0.07480536 0.07353076 -0.0673005 0.014797688 -0.055163782 0.052679006 0.01674828
0.0598107 0.08703859 -0.038768206 -0.068477325 -0.119044825 0.0075674932 0.01537954 0.05498042
0.013933636 0.07940925 0.062797755 0.015764715 0.053311888 -0.0077519678 0.10037551 -0.12275916
0.018544821 0.028311422 -0.07599842 0.02541875 0.038464285 -0.07339514 -0.043435644 0.032910287
0.11457624 0.094999135 0.10464644 0.008409527 0.032038253 0.07670196 0.022920597 0.07384483
-0.019385438 -0.059517622 -0.022358367 -0.071093045 0.08688559 -0.052198302 0.021687968 -0.028754208
-0.074856676 -0.039939713 0.045285992 -0.06720062 0.07071636 0.13332458 0.06257253 -0.022506868
-0.062259674 0.064464346 -0.08759471 -0.052954935 -0.024294697 0.04172509 -0.01489612 0.10030805
-0.11486425 -0.05301757 0.0029668275 0.008024412 0.046895705 -0.07823763 -0.0038128651 -0.024713427
-0.09312112 0.09040722 0.008900047 0.028454708 0.049386416 -0.084360205 -0.079581805 0.08369549
-0.0018550202 -0.02372499 0.06270241 -0.06490248 0.07846613 0.03809627 0.00034147632 0.042804424
0.016848296 0.02587984 -0.0036450285 -0.008597511 0.12923822 -0.058520373 -0.113325424 0.04461249
-0.08996351 0.13987872 -0.017403506 0.03209915 -0.13526873 0.05049908 0.039388783 0.06058792
0.035810724 0.08044738 0.12416184 0.008183467 -0.12692071 -0.051906046 0.037235375 0.018983565
-0.102510884 -0.03687407 -0.030761443 0.09194815 -0.1307565 0.07806243 0.009848682 0.076322414
-0.10901961 -0.09115894 -0.10890858 -0.118870325 -0.06523591 -0.07300461 0.02530351 -0.06470676
0.14118959 0.06992423 -0.049618606 -0.002491281 -0.04103948 -0.08418496 0.07426041 -0.03440735
0.14826731 -0.052480165 -0.095249735 0.13612905 0.023042357 0.041186627 -0.030302571 -0.032551255
-0.05974503 -0.051885974 -0.08287141 0.10820908 -0.041117735 0.09723353 -0.09864573 -0.03517857
-0.0012831533 0.096881784 0.08229545 0.04487494 -0.012693204 -0.028568244 0.062808275 0.054410823
-0.0020133757 -0.014325854 -0.085728966 -0.073422395 0.019067708 -0.04390813 -0.07806722 0.06536443
-0.032264687 0.01922297 0.014143126 0.041926567 -0.068282664 0.03703442 0.012686469 -0.0008018198
0.1049724 -0.102595136 -0.14030446 0.09588936 -0.034629185 -0.05936229 0.07766215 0.087997325
-0.08385075 -0.07619066 -0.042442493 -0.0890182 0.086697675 -0.08045065 0.05624215 0.09762524
-0.0943418 -0.106999785 -0.09588944 0.00570096 0.092767596 -0.011753097 -0.047898367 -0.044504806
-0.024807375 0.063766696 -0.076455146 -0.06729484 0.09369757 0.08792625 0.08254543 0.031718135
-0.05381183 -0.06538718 -0.038566586 -0.030213622 -0.11687196 0.073528714 0.022570545 0.08017225
0.053135086 0.075086586 0.0506227 -0.03761297 -0.038094815 0.07298401 -0.08129073 -0.04804074
-0.047022212 0.06860792 -0.00079230696 -0.059611894 0.01858005 -0.050445665 -0.01610731 -0.041334726
0.09897019 0.06089294 0.05806486 0.041151665 -0.025751326 0.054006185 0.07031241 0.04651754
00000000: decb 733c 25d2 fb3c a69b df3d e7d7 d13d
00000010: 6c00 6ebd 2587 693b 3e97 a93d 3dfc 5fbd
00000020: 584f 59bc f7e6 23bd 4be0 3f3d 511e 51bd
00000030: 9723 1a3d c8c9 bf3d c06d 423d 0385 88bd
00000040: 4a14 c7bd 8d33 99bd 4c97 963d d8d4 89bd
00000050: 0172 723c 6bf3 61bd f1c5 573d b033 893c
00000060: 11fc 743d 4a41 b23d 69cb 1ebd d73d 8cbd
00000070: c6cd f3bd bcf8 f73b 77fa 7b3c 2633 613d
00000080: e849 643c 51a1 a23d 1c9c 803d 0125 813c
00000090: 915d 5a3d 3804 febb ad91 cd3d 2869 fbbd
000000a0: 4feb 973c 5bed e73c 0fa5 9bbd fb3a d03c
000000b0: ba8c 1d3d 3150 96bd 93e9 31bd f0cc 063d
000000c0: f3a6 ea3d e88e c23d df50 d63d 1dc8 093c
000000d0: 8b3a 033d eb15 9d3d fac3 bb3c f53b 973d
000000e0: 36ce 9ebc c0c8 73bd e528 b7bc 3b99 91bd
000000f0: 12f1 b13d e3cd 55bd f7aa b13c f28d ebbc
00000100: 754e 99bd d397 23bd ce7d 393d 7ba0 89bd
00000110: bdd3 903d 3d86 083e 0726 803d 5360 b8bc
00000120: 0004 7fbd e205 843d db64 b3bd 46e7 58bd
00000130: ac05 c7bc eee7 2a3d db0e 74bc 4f6e cd3d
00000140: f33d ebbd f428 59bd 1b6f 423b d378 033c
00000150: b615 403d 0d3b a0bd 43e1 79bb d073 cabc
00000160: 49b6 bebd 6c27 b93d 81d1 113c d919 e93c
00000170: 6949 4a3d 0bc5 acbd c9fb a2bd 8b68 ab3d
00000180: 2624 f3ba e95a c2bc 1f6a 803d 97eb 84bd
00000190: dab2 a03d d60a 1c3d 2d08 b339 b153 2f3d
000001a0: 7005 8a3c f501 d43c 6ee1 6ebb 93dc 0cbc
000001b0: 0657 043e 0fb3 6fbd 2917 e8bd 96bb 363d
000001c0: ca3e b8bd 5e3c 0f3e cc91 8ebc 667a 033d
000001d0: e383 0abe 20d8 4e3d 2256 213d 0a2b 783d
000001e0: 44ae 123d 99c1 a43d 9048 fe3d f313 063c
000001f0: 81f7 01be 6f9b 54bd 1f84 183d 6c83 9b3c
00000200: 3af1 d1bd 4409 17bd 6cff fbbc 504f bc3d
00000210: 08e5 05be 32df 9f3d 5e5c 213c ed4e 9c3d
00000220: ac45 dfbd 8ab1 babd 760b dfbd 4972 f3bd
00000230: 689a 85bd 7183 95bd 4e49 cf3c fa84 84bd
00000240: 0194 103e 6f34 8f3d e13c 4bbd c244 23bb
00000250: 0419 28bd 2a69 acbd d815 983d b9ee 0cbd
00000260: 63d3 173e 71f5 56bd 4b12 c3bd 6a65 0b3e
00000270: 53c3 bc3c 4fb3 283d 193d f8bc 7754 05bd
00000280: 34b7 74bd 6386 54bd 7cb8 a9bd b99c dd3d
00000290: 126b 28bd 5f22 c73d c606 cabd 6717 10bd
000002a0: 7b2f a8ba f569 c63d 848a a83d c9ce 373d
000002b0: 28f7 4fbc f307 eabc a0a1 803d e2dd 5e3d
000002c0: d7f2 03bb fdb6 6abc ab92 afbd 7b5e 96bd
000002d0: e233 9c3c 03d9 33bd b5e1 9fbd c9dd 853d
000002e0: fa27 04bd 7d79 9d3c 92b8 673c 31bb 2b3d
000002f0: c8d7 8bbd 67b1 173d e8da 4f3c 3731 52ba
00000300: c5fb d63d 661d d2bd f9ab 0fbe a461 c43d
00000310: 55d7 0dbd df25 73bd 550d 9f3d f137 b43d
00000320: f1b9 abbd d909 9cbd 2ed8 2dbd 2d4f b6bd
00000330: 8d8e b13d 4fc3 a4bd 2b5e 663d beef c73d
00000340: 4636 c1bd b422 dbbd af61 c4bd 1ecf ba3b
00000350: f0fc bd3d 1090 40bc 1431 44bd ac4a 36bd
00000360: d638 cbbc 1d98 823d 8494 9cbd e1d1 89bd
00000370: 83e4 bf3d ae12 b43d 940d a93d e0ea 013d
00000380: cb69 5cbd b7e9 85bd fff7 1dbd 8f82 f7bc
00000390: 915a efbd 3996 963d dde5 b83c 5931 a43d
000003a0: 2da4 593d ffc6 993d c059 4f3d 0f10 1abd
000003b0: 4f09 1cbd a478 953d c17b a6bd 5ec6 44bd
000003c0: 5d9a 40bd 4f82 8c3d d2b2 4fba 9a2b 74bd
000003d0: 3035 983c 1da0 4ebd 7af3 83bc 9a4e 29bd
000003e0: e2b0 ca3d e06a 793d 6bd5 6d3d a68e 283d
000003f0: 72f4 d2bc 9735 5d3d f4ff 8f3d 2d89 3e3d

bias_ih_l0 f4 [300]
0.053803742 0.074793704 -0.05819191 -0.08248084 -0.07531455 -0.006568534 0.027359238 -0.02871831
0.092231184 0.036367193 0.027630974 -0.016585339 0.013999283 -0.026837474 0.08227275 -0.018989384
0.11993414 0.0086986665 0.07786541 0.016286884 -0.09200643 -0.0130801005 0.0036795964 -0.05552364
0.13846089 -0.030749723 0.15771382 0.108656384 0.01927866 0.05169775 -0.09142254 0.117418945
0.10523209 -0.048410237 0.050181914 0.016520811 0.012067778 0.09033499 -0.07939836 0.022506572
-0.059467554 -0.0012321151 -0.11720366 -0.00019836436 -0.044009164 0.10410086 0.11301613 0.0018032982
0.07489737 0.119324915 -0.082380995 0.030801954 0.051994406 -0.002664375 0.0008996907 0.023454303
0.0062829847 0.031955566 -0.013720908 -0.024228519 0.07567247 -0.043240678 0.022813264 0.036120344
0.005265901 0.007039943 0.05691619 0.053357027 -0.043269258 -0.015794303 -0.06040025 0.12324654
0.09374483 0.019822229 0.111524545 -0.027921608 0.009800664 0.10610887 -0.00041641959 0.1288229
0.061073527 0.017560469 -0.024462756 0.057402108 -0.010708099 0.044940565 0.038772844 -0.013423733
-4.0741998e-05 0.044730276 0.07062168 -0.03363601 0.08476393 0.114229836 0.05963392 0.082735024
0.16106632 -0.025675137 0.016021721 -0.033517312 -0.086200096 -0.16927192 -0.010931 -0.15141842
-0.044069342 -0.14813343 -0.043506086 -0.08314176 -0.112244114 0.058983065 -0.12743905 -0.09498884
-0.06770549 0.031139014 -0.049769133 -0.10685869 -0.15563254 -0.0354086 -0.07078889 -0.081685305
-0.06591699 0.0535555 -0.03716788 -0.12620656 -0.20158105 -0.048816945 -0.013764913 -0.0091315145
-0.10953101 -0.11666799 -0.10233337 -0.1441079 -0.026430946 -0.18756509 0.038277626 -0.070316926
-0.07712528 0.025692271 -0.14098191 -0.12748002 -0.036864858 -0.11929678 0.024443967 -0.10584524
0.0126115 -0.009052875 -0.07822215 -0.14938031 -0.013128642 0.0051586693 -0.20441663 -0.14214636
0.0034867097 -0.19905324 -0.075698525 -0.22846536 -0.13580364 0.071448 -0.137239 -0.06803434
-0.13577783 -0.099801205 -0.007986822 -0.00081263157 -0.08810229 -0.14694652 0.015983565 -0.14942683
-0.1384878 0.009284875 -0.13838775 -0.091941856 -0.010373842 -0.11147384 -0.12174844 -0.09895632
-0.15715455 -0.15465665 0.0023128395 -0.021649778 -0.08295662 0.02418063 -0.065635756 -0.08543663
0.027782088 -0.075353704 -0.012509235 -0.06267632 -0.014206511 -0.14167725 -0.061009686 -0.012581204
-0.06893251 -0.2157048 -0.11775863 -0.0068646423 -0.09417369 -0.09978144 -0.13364245 -0.052282892
0.09278772 -0.077705294 0.07821455 -0.026768869 -0.03861981 -0.021561692 -0.06770999 0.05199427
0.05437359 -0.021140568 0.0104286065 -0.09360008 -0.08506524 0.09959387 0.03105905 -0.10335455
0.049893547 0.01711357 -0.044249244 -0.0814347 -0.03398067 0.030386414 -0.014869472 0.035605155
-0.13253091 0.051222645 -0.13989738 0.002084228 0.022462152 0.011316589 0.10880923 -0.027514333
-0.07408265 0.07859761 0.10015342 -0.012775359 -0.03240355 0.06396271 -0.012364409 -0.06282609
-0.114632696 -0.1123366 0.0030317649 -0.04468926 0.10314567 0.04651059 -0.06960642 -0.022610927
0.04305257 -0.030557832 0.032598395 0.010264249 0.08414271 0.05467026 -0.035551883 0.003299222
00000000: 5061 5c3d 712d 993d a45a 6ebd b7eb a8bd
00000010: 843e 9abd db3c d7bb 7b20 e03c a942 ebbc
00000020: b4e3 bc3d c4f5 143d 5a5a e23c fadd 87bc
00000030: 405d 653c 43da dbbc 9e7e a83d a08f 9bbc
00000040: 08a0 f53d da84 0e3c e677 9f3d 126c 853c
00000050: de6d bcbd eb4d 56bc 6225 713b c26c 63bd
00000060: b1c8 0d3e d8e6 fbbc bb7f 213e 3d87 de3d
00000070: 48ee 9d3c 05c1 533d be3b bbbd 5879 f03d
00000080: ec83 d73d d049 46bd 8d8b 4d3d a756 873c
00000090: eeb7 453c 8d01 b93d 9b9b a2bd b45f b83c
000000a0: 4094 73bd ec7e a1ba 7908 f0bd 0700 50b9
000000b0: f442 34bd d532 d53d 0075 e73d a65c ec3a
000000c0: cb63 993d 9f60 f43d 5eb7 a8bd 6154 fc3c
000000d0: 16f8 543d cb9c 2ebb 39d9 6b3a 3d23 c03c
000000e0: 7fe1 cd3b d7e3 023d a9cd 60bc e37a c6bc
000000f0: 2bfa 9a3d 231d 31bd e2e2 ba3c edf2 133d
00000100: 948d ac3b 52af e63b f320 693d e68c 5a3d
00000110: 1b3b 31bd 0e63 81bc 4166 77bd af68 fc3d
00000120: 4afd bf3d 3a62 a23c fb66 e43d dbbb e4bc
00000130: f792 203c 9b4f d93d e452 dab9 26ea 033e
00000140: 3c28 7a3d f9da 8f3c 1e66 c8bc 791e 6b3d
00000150: 0671 2fbc 9913 383d 46d0 1e3d 38ef 5bbc
00000160: 63e2 2ab8 1837 373d 19a2 903d eac5 09bd
00000170: b698 ad3d 55f1 e93d b342 743d fb70 a93d
00000180: 92ee 243e aa54 d2bc fc3f 833c 7349 09bd
00000190: ad89 b0bd 9e55 2dbe f017 33bc 6e0d 1bbe
000001a0: 0e82 34bd 4ab0 17be 7033 32bd 3a46 aabd
000001b0: 3ee0 e5bd 3a98 713d 627f 02be 8289 c2bd
000001c0: 2da9 8abd 3f17 ff3c b8da 4bbd bbd8 dabd
000001d0: 235e 1fbe 9c08 11bd c4f9 90bd a04a a7bd
000001e0: 7dff 86bd 035d 5b3d 593d 18bd 4b3c 01be
000001f0: 436b 4ebe 47f4 47bd 3b86 61bc 599c 15bc
00000200: cb51 e0bd a1ef eebd 2894 d1bd 0591 13be
00000210: b685 d8bc 1011 40be 00c9 1c3d 5202 90bd
00000220: dcf3 9dbd 9978 d23c 905d 10be 1f8a 02be
00000230: 9bff 16bd df51 f4bd b73e c83c 64c5 d8bd
00000240: 77a0 4e3c 8352 14bc ef32 a0bd 27f7 18be
00000250: 8419 57bc 0e0a a93b 9852 51be d18e 11be
00000260: 4881 643b 9dd4 4bbe d407 9bbd d3f2 69be
00000270: 1c10 0bbe 5453 923d 6188 0cbe 9755 8bbd
00000280: 5809 0bbe 9364 ccbd 29db 02bc c806 55ba
00000290: f96e b4bd 2679 16be f7ef 823c 5903 19be
000002a0: bfcf 0dbe 971f 183c 85b5 0dbe 034c bcbd
000002b0: 0cf7 29bc 664c e4bd 3f57 f9bd 9ca9 cabd
000002c0: 1fed 20be 505e 1ebe 0293 173b e05a b1bc
000002d0: 29e5 a9bd 7516 c63c 0a6c 86bd 66f9 aebd
000002e0: 4397 e33c 0b53 9abd 89f3 4cbc 715c 80bd
000002f0: 6dc2 68bc d713 11be 4be5 79bd 6521 4ebc
00000300: 7d2c 8dbd b8e1 5cbe 702b f1bd cbf0 e0bb
00000310: 23de c0bd 365a ccbd 91d9 08be 9626 56bd
00000320: 7d07 be3d f423 9fbd f32e a03d 634a dbbc
00000330: ce2f 1ebd 25a2 b0bc 89ab 8abd f2f7 543d
00000340: d7b6 5e3d fc2e adbc bfdc 2a3c 66b1 bfbd
00000350: af36 aebd dff7 cb3d 8c6f fe3c 8dab d3bd
00000360: 2d5d 4c3d c231 8c3c b23e 35bd 3cc7 a6bd
00000370: 512f 0bbd eeec f83c 169f 73bc b6d6 113d
00000380: 2fb6 07be d6ce 513d 4241 0fbe 8b97 083b
00000390: 8c02 b83c 3769 393c 60d7 de3d bd65 e1bc
000003a0: a5b8 97bd c9f7 a03d 3c1d cd3d bd4f 51bc
000003b0: 96b9 04bd e2fe 823d 1794 4abc f7aa 80bd
000003c0: 8cc4 eabd bb10 e6bd 93b0 463b 160c 37bd
000003d0: 093e d33d e381 3e3d d08d 8ebd 8d3a b9bc
000003e0: e457 303d 6b54 fabc e585 053d 612b 283c
000003f0: 0353 ac3d eced 5f3d da9e 11bd c337 583b

bias_hh_l0 f4 [300]
0.098833896 0.11529533 0.018894015 -0.06806636 0.09640135 0.1428976 -0.030758051 -0.027840339
0.13489158 -0.0015696738 0.11087467 0.04083251 0.072727285 -0.051184762 0.055253286 -0.04529572
-0.041152436 0.02011905 0.09122732 0.08790025 0.06901252 0.057820782 0.04332137 -0.006823464
0.06486475 0.07447258 0.057032216 -0.04017527 -0.045149967 0.06359824 -0.02594929 0.08055803
0.09340854 0.1232542 0.09235548 -0.03767992 0.07307902 0.016405962 0.031229822 -0.030614726
0.084499635 -0.048464086 -0.07423417 -0.025537774 0.044757128 -0.045038916 0.11706328 0.08471498
0.07478269 0.14794357 -0.0807906 -0.017825874 0.058972172 0.011323571 0.047746185 0.038935035
-0.024493527 0.021817591 -0.03293769 0.072669946 0.12531358 -0.038285833 0.0038840703 0.078021325
-0.05432972 0.15772237 0.03318575 -0.029378515 0.03445199 0.10496485 -0.016291525 0.017150853
-0.037532467 -0.08146396 0.10702392 0.08877714 0.06829968 0.051965714 0.083508484 0.11347642
0.0826834 0.06027679 0.05118972 0.05564977 0.10508035 0.015380518 0.109949894 -0.05392027
0.103852905 -0.07518414 -0.07277594 0.11318095 0.026501214 0.06847759 0.15074265 0.025448179
0.058435585 0.07145703 0.062240414 0.0413136 -0.05032682 -0.110329255 -0.005534431 -0.11147998
0.014614358 -0.021122778 -0.15445481 -0.037157822 -0.054725733 0.080325164 -0.15018289 -0.14101712
-0.06805069 0.023737954 -0.12202695 -0.110313006 -0.1034117 -0.08561932 0.06924505 0.05470431
0.037992224 -0.0018106884 -0.17427592 0.031690992 -0.19526862 -0.124727555 -0.053679287 -0.08147695
-0.093824 -0.033311013 -0.103371136 -0.08571316 -0.032544184 -0.17701681 -0.0025733488 -0.14554997
-0.147663 -0.003943402 -0.08391557 -0.08226989 -0.12770565 0.0120476065 -0.12339716 -0.10237571
-0.11465144 -0.08624196 -0.08988102 -0.10592662 -0.12841183 0.029846385 -0.16372518 -0.012373223
0.032211628 -0.10552364 -0.12885883 -0.0463685 -0.03989257 -0.0809391 0.0056574084 -0.09344601
-0.08061531 0.021780567 0.05286099 -0.06767937 -0.024873104 -0.12685093 -0.12494161 -0.08829415
-0.19305518 -0.058606125 -0.043640938 -0.23097982 -0.0836511 0.023364808 -0.103809685 -0.17186935
-0.020222493 -0.17096528 -0.032191608 -0.052853774 -0.060968548 0.033491094 -0.18410149 -0.04373936
-0.043126322 -0.17859681 -0.04874356 -0.03883895 -0.013671888 0.014063865 -0.021119308 -0.048620276
0.032066412 -0.18864192 -0.040159397 -0.1109817 -0.06021005 -0.030859219 0.0021783696 -0.04626345
-0.062166847 -0.034490224 0.118260145 -0.031383418 -0.051954366 0.07578427 0.022254638 0.017023783
0.12712166 0.035005834 -0.08785173 -0.029636573 0.08860121 0.009831987 0.016955512 0.004206916
0.043874297 -0.051931765 0.051492803 -0.015745278 -0.07329294 0.097581714 -0.027308598 0.10632074
-0.041116394 -0.045053896 -0.088851936 -0.0023774717 0.037043687 -0.08714364 -0.084749304 -0.03558454
-0.059556104 -0.08869867 0.036386058 0.04755641 -0.0071733063 -0.08092563 -0.00039606905 -0.01114522
-0.103916295 0.009472208 -0.074726924 0.033900518 0.107497334 -0.014703607 0.029348219 0.013843451
0.049023136 -0.05356528 -0.09764775 -0.009284935 0.024199242 0.001930899 0.06956639 0.055294953
00000000: 6d69 ca3d f51f ec3d 9fc7 9a3c 6066 8bbd
00000010: 126e c53d c053 123e 4ff8 fbbc 6c11 e4bc
00000020: 0521 0a3e 83bd cdba 4212 e33d fd3f 273d
00000030: 0bf2 943d 1da7 51bd 4551 623d 0188 39bd
00000040: 758f 28bd b5d0 a43c 64d5 ba3d 0c05 b43d
00000050: 7056 8d3d 7cd5 6c3d c071 313d 5d97 dfbb
00000060: cfd7 843d 1485 983d 9d9a 693d d38e 24bd
00000070: 2cef 38bd cb3f 823d 9b93 d4bc 9cfb a43d
00000080: fa4c bf3d b36c fc3d df24 bd3d 4356 1abd
00000090: 74aa 953d cc65 863c afd5 ff3c bccb fabc
000000a0: 250e ad3d 4782 46bd 1608 98bd 9834 d1bc
000000b0: 4053 373d ba7a 38bd dfbe ef3d 0c7f ad3d
000000c0: ab27 993d 857e 173e 8b75 a5bd 9107 92bc
000000d0: ce8c 713d 8086 393c 8191 433d 587a 1f3d
000000e0: a6a6 c8bc ceba b23c ace9 06bd fbd3 943d
000000f0: 3452 003e 9bd1 1cbd e38b 7e3b a5c9 9f3d
00000100: d788 5ebd f981 213e c8ed 073d 36ab f0bc
00000110: 881d 0d3d d0f7 d63d ce75 85bc f27f 8c3c
00000120: a5bb 19bd 94d6 a6bd 5b2f db3d cad0 b53d
00000130: b4e0 8b3d 00da 543d 7f06 ab3d 5366 e83d
00000140: ea55 a93d cce4 763d 50ac 513d 03f1 633d
00000150: 5e34 d73d 91fe 7b3c 692d e13d 80db 5cbd
00000160: d5b0 d43d 24fa 99bd 8d0b 95bd 6acb e73d
00000170: 1319 d93c fb3d 8c3d 485c 1a3e b378 d03c
00000180: 275a 6f3d 1058 923d ceef 7e3d 7338 293d
00000190: 7f23 4ebd 4ef4 e1bd 2c5a b5bb 9e4f e4bd
000001a0: 0f71 6f3c ad09 adbc 6729 1ebe cd32 18bd
000001b0: 1728 60bd 8581 a43d 8bc9 19be cb66 10be
000001c0: 295e 8bbd 1976 c23c 44e9 f9bd c9eb e1bd
000001d0: 83c9 d3bd 2f59 afbd 59d0 8d3d a011 603d
000001e0: bc9d 1b3d 9f54 edba 6375 32be 6ace 013d
000001f0: 7ff4 47be 2971 ffbd d0de 5bbd 63dd a6bd
00000200: cc26 c0bd 2171 08bd 3fb4 d3bd 628a afbd
00000210: 0d4d 05bd e543 35be a1a5 28bb 0d0b 15be
00000220: f834 17be a737 81bb eddb abbd 1e7d a8bd
00000230: 45c5 02be 5363 453c a6b7 fcbd 5baa d1bd
00000240: 60ce eabd a09f b0bd 8a13 b8bd 0ef0 d8bd
00000250: 647e 03be 6880 f43c 93a7 27be 0fb9 4abc
00000260: 57f0 033d c71c d8bd 92f3 03be e5ec 3dbd
00000270: 6466 23bd 66c3 a5bd c861 b93b 9f60 bfbd
00000280: a419 a5bd 296d b23c c484 583d 7b9b 8abd
00000290: aec2 cbbc 36e5 01be 63e1 ffbd 90d3 b4bd
000002a0: 42b0 45be fa0c 70bd d7c0 32bd f985 6cbe
000002b0: 4551 abbd 8e67 bf3c 2c9a d4bd 85fe 2fbe
000002c0: a4a9 a5bc 8611 2fbe 59db 03bd 337d 58bd
000002d0: 28ba 79bd f52d 093d 1a85 3cbe 0b28 33bd
000002e0: 3aa5 30bd 15e2 36be 54a7 47bd 9715 1fbd
000002f0: 0e00 60bc 206c 663c 6602 adbc 0e26 47bd
00000300: 1258 033d 592b 41be 2e7e 24bd 604a e3bd
00000310: d09e 76bd 79cc fcbc fac2 0e3b be7e 3dbd
00000320: aaa2 7ebd 9f45 0dbd 6032 f23d e68b 00bd
00000330: 1ace 54bd c934 9b3d 5c4f b63c 7675 8b3c
00000340: 2e2c 023e 4762 0f3d 9ceb b3bd 66c8 f2bc
00000350: 8d74 b53d 5816 213c 49e6 8a3c 2bda 893b
00000360: 89b5 333d 67b6 54bd 1eea 523d 3efc 80bc
00000370: 9c1a 96bd ecd8 c73d 48b6 dfbc b0be d93d
00000380: aa69 28bd 6f8a 38bd 01f8 b5bd 5bcf 1bbb
00000390: 1fbb 173d 5d78 b2bd 0b91 adbd 18c1 11bd
000003a0: 1af1 73bd a6a7 b5bd 8c09 153d 83ca 423d
000003b0: 0e0e ebbb 56bc a5bd 7da7 cfb9 719a 36bc
000003c0: 11d2 d4bd 5231 1b3c 6e0a 99bd 45db 0a3d
000003d0: 9027 dc3d 66e7 70bc ad6b f03c a4cf 623c
000003e0: 7ccc 483d 4467 5bbd 8bfb c7bd d71f 18bc
000003f0: 7d3d c63c 3816 fd3a d378 8e3d f67c 623d

weight f4 [15, 100]
0.10948354 0.06709162 0.13891096 0.06815656 0.05302113 -0.13471647 0.10230088 0.11620477
-0.11177025 -0.113135144 -0.07667428 -0.027400667 0.08497099 0.11142553 0.06499514 -0.0072974507
-0.044518974 0.03962897 -0.14519794 -0.11308999 0.15496369 0.13714138 0.15173557 0.09373977
-0.056795005 0.070377655 -0.07152261 0.117207445 -0.018304596 -0.07243087 0.013169676 0.057043787
0.0013203059 0.09246133 0.12703747 -0.10136145 -0.05912807 -0.12190932 0.02472106 -0.027683053
-0.049229003 -0.13045087 0.001304993 0.06826843 0.06320735 -0.0546461 0.06584699 0.017834298
0.06445683 0.079590045 0.012360683 0.018183546 0.059135526 0.06941633 -0.07179568 0.14537582
-0.04697519 -0.02711112 0.141164 0.14670216 0.1374142 -0.13574326 0.053990144 0.05459366
0.11217563 0.09156622 -0.06819592 0.11276232 0.047936365 -0.09993484 0.09257344 0.046354067
-0.08226937 -0.11376274 0.08007634 -0.07040758 0.10259021 0.04439546 0.10075003 0.06351443
-0.11741121 -0.11773221 0.049030796 0.11313547 -0.050771113 -0.0333265 -0.03944104 0.064387515
-0.09243195 0.09594345 -0.10652583 -0.057561792 0.13481814 -0.023082593 -0.06655542 0.054953616
-0.09977106 0.045374077 0.03755298 -0.15530626 -0.14228208 0.007460653 0.018238375 0.03432113
0.029439094 -0.093408786 0.06399936 0.018088417 -0.0498302 0.1517152 0.1754296 0.13718319
0.13096344 -0.03452782 0.041808378 -0.022132734 0.14403935 0.05188079 -0.015341925 0.083793536
0.15319154 -0.01100762 0.0859413 -0.02557395 0.103260994 -0.07424478 0.05211537 0.00967546
0.11565702 -0.08748205 -0.26231703 -0.1278463 0.16225831 0.02516869 -0.09821737 0.0019472647
0.0025244823 0.054063514 -0.044980414 0.19022295 0.15567458 -0.034783218 -0.06634204 -0.108907364
-0.04676401 0.06959773 0.05676999 -0.12701426 -0.1462844 -0.06977439 -0.11124868 0.07138528
-0.16429384 -0.08117197 0.044415247 0.101642 -0.10834715 0.042855155 0.03277881 -0.13068768
-0.13820462 0.031922407 0.0580979 -0.15905744 -0.15058573 -0.08111994 0.16640195 0.08240863
-0.027701752 -0.24848583 0.04650891 -0.030129703 0.10384738 0.072070114 -0.06281854 -0.021152737
-0.10337657 -0.11115 -0.02677961 -0.07054353 0.03868765 0.06923812 0.048133597 0.018960947
-0.14215845 0.25069252 -0.016109074 -0.10665749 0.023217423 -0.0697362 0.021296509 -0.06162457
-0.062254082 -0.026109641 -0.035990924 -0.1163083 -0.00069389504 -0.097379684 0.050639164 -0.084458314
0.043920346 0.08000943 -0.21983391 -0.23412645 -0.18117036 0.2393482 0.002434886 -0.11406217
0.22596692 -0.07832468 0.22205071 -0.21016629 -0.14221436 0.063134275 0.14328666 0.22918949
0.23322335 0.18038505 0.1210523 -0.083171695 -0.11897035 -0.069087856 -0.009660774 -0.10118712
-0.054019317 0.20699497 -0.15378904 -0.01961214 0.11705625 0.09953004 -0.3199699 0.07116309
0.039570756 0.15673651 -0.16981912 -0.038859535 -0.056176737 0.103606515 -0.22497082 -0.13016053
-0.022391342 0.15595418 -0.08781128 0.049084403 0.058407 -0.06494468 -0.20782143 -0.095855586
0.216067 -0.11496527 -0.14324102 0.013569424 0.06758559 0.12855223 -0.09269173 -0.25582433
00000000: e838 e03d 5567 893d ad3e 0e3e ab95 8b3d
00000010: af2c 593d 1df3 09be 2083 d13d c4fc ed3d
00000020: cde7 e4bd 66b3 e7bd 6807 9dbd 5d77 e0bc
00000030: 4505 ae3d 1133 e43d 2c1c 853d 741f efbb
00000040: 8759 36bd fd51 223d c5ae 14be ba9b e7bd
00000050: cdae 1e3e ca6e 0c3e 9260 1b3e a3fa bf3d
00000060: e1a1 68bd 2922 903d 727a 92bd 750a f03d
00000070: 85f3 95bc a356 94bd a0c5 573c bfa6 693d
00000080: 1d0e ad3a 5e5c bd3d 1c16 023e 9896 cfbd
00000090: 4630 72bd 98ab f9bd d283 ca3c 92c7 e2bc
000000a0: 5aa4 49bd ea94 05be 4d0c ab3a 52d0 8b3d
000000b0: db72 813d 97d4 5fbd c9da 863d 3c19 923c
000000c0: f101 843d 1b00 a33d 7684 4a3c a9f5 943c
000000d0: 1838 723d 262a 8e3d 9d09 93bd 66dd 143e
000000e0: 0f69 40bd 2418 debc 4c8d 103e 1739 163e
000000f0: 4fb6 0c3e 4800 0bbe c524 5d3d 9a9d 5f3d
00000100: 56bc e53d 1287 bb3d 4daa 8bbd eeef e63d
00000110: ec58 443d a3aa ccbd 2597 bd3d c3dd 3d3d
00000120: d87c a8bd 70fc e8bd 10ff a33d d931 90bd
00000130: d11a d23d 04d8 353d 0856 ce3d da13 823d
00000140: 4a75 f0bd 961d f1bd 84d4 483d 92b3 e73d
00000150: 5ff5 4fbd 5e81 08bd ee8c 21bd 9add 833d
00000160: f64c bdbd 007e c43d 372a dabd eac5 6bbd
00000170: c40d 0a3e b517 bdbc 354e 88bd 0b17 613d
00000180: c554 ccbd 2bda 393d 27d1 193d 9b08 1fbe
00000190: 65b2 11be 7e78 f43b a568 953c 5094 0c3d
000001a0: 412a f13c 1b4d bfbd 1912 833d 292e 943c
000001b0: c01a 4cbd 3b5b 1b3e d1a3 333e c079 0c3e
000001c0: 481b 063e 0b6d 0dbd 433f 2b3d b54f b5bc
000001d0: 0d7f 133e f480 543d b35c 7bbc f29b ab3d
000001e0: 3ede 1c3e 4e59 34bc fe01 b03d 7680 d1bc
000001f0: 807a d33d a60d 98bd ed76 553d d285 1e3c
00000200: 96dd ec3d ca29 b3bd 6b4e 86be 24ea 02be
00000210: 0b27 263e 922e ce3c 3026 c9bd 5c3b ff3a
00000220: c971 253b b471 5d3d 623d 38bd cec9 423e
00000230: 2869 1f3e d978 0ebd 56de 87bd d30a dfbd
00000240: 9e8b 3fbd 4189 8e3d a687 683d 0710 02be
00000250: 94cb 15be e0e5 8ebd 59d6 e3bd 7232 923d
00000260: a53c 28be 7d3d a6bd c3ec 353d ae29 d03d
00000270: 1ce5 ddbd e388 2f3d 1343 063d fed2 05be
00000280: 8385 0dbe 12c1 023d 10f8 6d3d f4df 22be
00000290: 2533 1abe 3622 a6bd 4665 2a3e dbc5 a83d
000002a0: c9ee e2bc 1273 7ebe 2080 3e3d 91d2 f6bc
000002b0: efad d43d 7f99 933d 02a7 80bd 8148 adbc
000002c0: 18b7 d3bd 9ca2 e3bd ea60 dbbc 2079 90bd
000002d0: f176 1e3d b7cc 8d3d bc27 453d fd53 9b3c
000002e0: fc91 11be c55a 803e 2df7 83bc 3e6f dabd
000002f0: 7732 be3c dad1 8ebd 0476 ae3c 0c6a 7cbd
00000300: 23fe 7ebd e3e3 d5bc 386b 13bd 0c33 eebd
00000310: 82e6 35ba 006f c7bd 036b 4f3d 7bf8 acbd
00000320: d2e5 333d fcdb a33d 241c 61be d8be 6fbe
00000330: b984 39be b217 753e 9c92 1f3b 6d99 e9bd
00000340: df63 673e b168 a0bd 4361 633e d535 57be
00000350: a4a0 11be 8b4c 813d bdb9 123e a6b0 6a3e
00000360: 1ad2 6e3e dcb6 383e 45ea f73d ec55 aabd
00000370: baa6 f3bd ef7d 8dbd 3948 1ebc 313b cfbd
00000380: 5c43 5dbd 7df6 533e e07a 1dbe a3a9 a0bc
00000390: 30bb ef3d 68d6 cb3d 18d3 a3be f4bd 913d
000003a0: f214 223d 897f 203e 10e5 2dbe 2d2b 1fbd
000003b0: 9419 66bd a72f d43d c05e 66be cd48 05be
000003c0: 0c6e b7bc 74b2 1f3e 66d6 b3bd ba0c 493d
000003d0: 2e3c 6f3d b701 85bd 24cf 54be ef4f c4bd
000003e0: ab40 5d3e e972 ebbd c6ad 12be 4a52 5e3c
000003f0: 506a 8a3d 32a3 033e 29d5 bdbd 68fb 82be

bias f4 [15]
-0.048119914 0.037971497 0.023102425 -0.09492906 -0.028192045 0.030711232 -0.008512656 -0.01153207
0.029670015 -0.1050405 0.057788596 0.05353739 -0.016552236 -0.036243867 -0.007082653
00000000: 6319 45bd 0088 1b3d 4c41 bd3c 2b6a c2bd
00000010: 01f3 e6bc 1f96 fb3c ab78 0bbc 02f1 3cbc
00000020: 880e f33c 791f d7bd bcb3 6c3d 064a 5b3d
00000030: 8e98 87bc 7374 14bd 9a15 e8bb
