models/colors/language_model.pt (torch_old, 932083 bytes, 7 tensors)

weight f4 [1201, 50]
00000000: 0b73 53bf a4be 27bf ebd4 13bf a4e7 69bf
00000010: aa1a efbf 911d 06be 0b87 af3f f891 4e3e
00000020: 057d 023e 8bc3 d83f a1e2 f93f 5643 e63f
00000030: 6237 1c40 a384 22bf 0535 003f 2a5a 2abd
00000040: 4945 cebe b2c8 27bf afdc 5bc0 fe1a ec3f
00000050: 325d b6bf a874 b0be f223 ef3f 283e f83f
00000060: d098 2fc0 4a16 913f 85dd df3e ad03 9cbf
00000070: 4b4c bcbf 44e3 873f 85ac 243d 0f00 1240
00000080: f9f8 01c0 bfcd d4be 2b93 3740 4728 17c0
00000090: 8e62 4ebf 5b2f 29c0 674d ea3e 77ca c8bf
000000a0: 70a6 0d3f 4dc7 f93f 3571 773f 77b5 1e3e
000000b0: 1074 b63f a1bf 1d40 747c c8bf 57aa f73e
000000c0: 4f3d 803d 2f00 b5bf a695 8c3e 42cd b23e
000000d0: b2ba 123f 1940 3bbf e4e0 5e3e 59cb 80bf
000000e0: c242 83bf 7e80 e33d 1ca9 1f3f 1abc fbbe
000000f0: 343e 51bf 2a49 e03f f6b2 eebf e89b bfbf
00000100: 5b85 a03f b8b7 493f d6df c8bd 9a24 653f
00000110: 9c0c bb3e 1d2d 12bf f9a1 6bbe c5a8 803e
00000120: 30d2 0cbf 89cf 873d e34f 2bbf 0cb5 783f
00000130: 9ca6 8fbf ff0f bbbf f90a 44be 9958 b2be
00000140: 23bd 40bf ad8e 333d 37fb 9dbf 10a6 353f
00000150: ed98 94bf d689 773f f372 80bd ac2b 023d
00000160: be49 39bf ff37 aebf 6080 1fbf 7fec 5ebf
00000170: 664d 7bbf c824 a9bf 2f29 e5bf 0e86 6dbf
00000180: 42cd 26be a7db 0ebf 5422 31bf 6dcd 0d3f
00000190: 831d 703f 66fc febf 79d7 d93f 7a6c 7140
000001a0: 5a86 0b40 623d a6bf 1e8a bd3f 6c4c f5bf
000001b0: 4b1c 8140 ff04 3040 a519 cabf d2a6 82bf
000001c0: eda0 873f fdfd 52c0 661f e03e cf99 d33e
000001d0: 4d5c 0cc0 b6d6 cc3f 5f7b 40c0 0acf 913f
000001e0: 4fee 55c0 891d 73c0 ea6b 0940 1e5a 87bf
000001f0: e8c0 7cc0 07d7 523f 2f3c b53f 224e 12c0
00000200: 2e4c 8ac0 532a 9cbe 6e22 373f f59a bdbd
00000210: e33d 79be 1c67 2d40 4e24 a73f 9d29 c3bf
00000220: 73e4 36c0 75a4 b8bf 6025 9abf 4fdb 5340
00000230: 82f9 84bf e16c b93f 4acc 00bf 3004 9abe
00000240: 321c 5840 2068 8e40 606d fe3f 6a4f 73c0
00000250: fb53 11c0 53af 36c0 4d8b 2e3e beef d83d
00000260: c688 10be 7d06 7ebf 5f9b 0b3f c417 c6bf
00000270: ed1c 6b3f 8002 ef3f 5dc3 88be c9ef 00bf
00000280: fe3f e1be e519 233f 2b3e de3e 38b1 753f
00000290: 93fc c33d 4a9b 4dbf 1a4e 243f 938e 883f
000002a0: ba77 583f c1e8 76be 7ebc 8fbf d52c 123f
000002b0: 0bbf 8cbe 7255 7b3f a69a b4be 09b5 343f
000002c0: 7577 c6be 638d 643c 4383 663e 7d43 39bf
000002d0: 45c3 00be ff53 47bd ce30 153e 1408 9e3f
000002e0: e336 0dc0 cf78 7a3f 06a8 a83e c880 02c0
000002f0: 939d f03d 6c26 0ac0 df6b b83e aec0 21bf
00000300: c9b2 0940 0e68 53bd a7e5 9e3e 8d37 d03f
00000310: d364 8e3f ced6 7ebe 2a09 903f 466f c43f
00000320: 813e 87bf b7ba c23e c11c 32c0 47a7 5a3e
00000330: bd82 5b3f d226 963f 92ef 67bf f983 673e
00000340: 92da 983e ad39 96bf 8512 42be 54f1 f1bf
00000350: 1914 b23f ee71 bcbd 4700 5e3f 8453 2e3e
00000360: 4c45 853f 1031 0c3f 02b5 44bd b693 813f
00000370: ea0c 713f c82f e6be f561 043e b687 813f
00000380: ea80 2d3f 1806 cfbe 67a5 923f 08d0 69bf
00000390: 96ab 1e3f 70fe febe 0578 9fbf 51aa 84be
000003a0: d0cf a33f f49c 5140 9e6e 3d3e 0716 803f
000003b0: 7313 023f 2e8a bdbf e419 a5bf 3797 19bf
000003c0: 175f 2bbe 07b5 58bf 1d46 433e 2c74 6bbf
000003d0: 6322 523f 3917 f0be 946d dfbf 398b 95bf
000003e0: ff01 a7be 4755 86be 173b 66bf 54fa 51bf
000003f0: 5ede 83bf 011b 943f 55b9 e23f 3e32 2c3f
-0.82597417 -0.6552527 -0.5774676 -0.9136908 -1.8680012 -0.13097216 1.3713087 0.2017287
0.12743004 1.6934675 1.9522287 1.7989299 2.4408803 -0.6348364 0.500809 -0.041589893
-0.40287235 -0.6554061 -3.4353445 1.8445737 -1.4247191 -0.34464002 1.8682845 1.9393969
-2.743702 1.1334927 0.43723693 -1.2188622 -1.4710783 1.0616231 0.04020359 2.2812536
-2.030821 -0.41563222 2.8683574 -2.3618333 -0.8061913 -2.6435153 0.45762178 -1.5686787
0.5533209 1.9513947 0.96657115 0.15498911 1.425417 2.464821 -1.566298 0.48372146
0.06261694 -1.4140681 0.27457923 0.34922224 0.57316124 -0.7314468 0.21765476 -1.0062057
-1.0254748 0.11108492 0.62367415 -0.49166948 -0.8173554 1.7522328 -1.8648365 -1.4969454
1.2540697 0.7879596 -0.09808318 0.89508975 0.36533058 -0.5710009 -0.23011006 0.2512876
-0.5500822 0.06631381 -0.6691877 0.97151256 -1.122272 -1.4614257 -0.1914481 -0.3483322
-0.752886 0.043837238 -1.234229 0.70956516 -1.1609169 0.96694696 -0.06271925 0.03177993
-0.72378147 -1.3610839 -0.6230526 -0.87079614 -0.98164976 -1.321435 -1.7903193 -0.92782676
-0.16289237 -0.5580391 -0.69193006 0.5539158 0.9379503 -1.9920776 1.7018882 3.772246
2.1800752 -1.2987483 1.4807775 -1.9163947 4.0347037 2.750305 -1.5789076 -1.020716
1.0595986 -3.2967522 0.43773955 0.41328284 -2.1931336 1.6003025 -3.00753 1.1391308
-3.3426702 -3.7986777 2.1472116 -1.0574377 -3.949274 0.82359356 1.4158992 -2.2860188
-4.3217993 -0.3050104 0.7153691 -0.09258071 -0.24340014 2.7094183 1.3057954 -1.5247074
-2.8576934 -1.4425188 -1.2042656 3.3102605 -1.0388644 1.4486352 -0.5031172 -0.3008132
3.376721 4.4502106 1.9877129 -3.801722 -2.2707508 -2.854451 0.17045327 0.10592602
-0.14114675 -0.9922865 0.5453395 -1.5476003 0.9184101 1.8672638 -0.2671155 -0.50365883
-0.43994135 0.63711387 0.43406805 0.9597354 0.09569659 -0.8031508 0.64181674 1.066851
0.8455769 -0.24112226 -1.1229398 0.5709966 -0.27489504 0.98177254 -0.35274237 0.7058874
-0.38763013 0.013949725 0.2251101 -0.72368604 -0.1257449 -0.04866409 0.14569399 1.2346215
-2.206475 0.9784059 0.32940692 -2.0391102 0.11748805 -2.158595 0.360198 -0.6318463
2.1515372 -0.051612906 0.31034586 1.6266953 1.1124519 -0.24886629 1.1252797 1.5346458
-1.056595 0.38033077 -2.783005 0.21352874 0.85746366 1.1730597 -0.9059993 0.22608937
0.29854256 -1.1736351 -0.18952377 -1.8901772 1.3912383 -0.09201418 0.86719173 0.17024046
1.0411773 0.54762363 -0.048024185 1.0123203 0.9416033 -0.4495833 0.12927993 1.0119541
0.6777483 -0.40434337 1.1456727 -0.91333055 0.6198057 -0.49803495 -1.2458502 -0.2591119
1.2797794 3.2752047 0.18499228 1.0006722 0.5081093 -1.4807794 -1.2898526 -0.5999636
-0.16735493 -0.84651226 0.19069715 -0.9197414 0.8208372 -0.46892717 -1.7455316 -1.1683112
-0.3261871 -0.26236936 -0.89933914 -0.82022595 -1.0302236 1.1570741 1.7712809 0.67264163

weight_ih_l0 f4 [300, 50]
00000000: 4aec 9dbe 0fdb eb3d 1859 913d 508c 4ebd
00000010: 5d21 0dbe 5627 c5bd 5d2e 29be d1a7 823d
00000020: e95c 32be 1f74 263e 8845 dabd b80e c03d
00000030: a790 163e 2cfc 06be 5c93 363c fd7c 2ebd
00000040: 7904 8dbd fa9e 4a3e 82d8 7d3e af34 003e
00000050: 2b79 e93d 3e85 bcbc 490a 20be 1211 903d
00000060: d231 e33d e86c e03d ddd2 4abe 49ad 8fbd
00000070: 8a74 8cbe 1601 263d 732d 5cbe fcc7 1f3e
00000080: 0910 263e ac18 f0bd 675b 83bd 5f91 003e
00000090: 67fe 953d b8fd f8bc 99a8 143d 3a4f 203d
000000a0: 995c c63e 42cd a1be d8ba 8fbd 8d39 0f3e
000000b0: 95bb 4e3e 2f6c a9bd 2624 863c 0666 94be
000000c0: 8aab babd 7350 2bbd 733d 68bd adae 483e
000000d0: 8490 a33e a980 cebd 03c0 1a3c 4f6d 8fbe
000000e0: bc8d 61bd eb4c 25be 2847 c8bc fd0d 763c
000000f0: 73ab be3e 95d3 9d3d a55e f93b 0467 8cbd
00000100: a1b1 d43d 75e5 163e 9726 d33d fb66 843e
00000110: 62ee 0d3d 2624 b23d 7d43 6cbe 332e aebe
00000120: fee8 ab3e a51b 14bf 1c59 893c 0dbd bf3c
00000130: 67db efbd 4c12 9fbe 04f9 e7be d079 b2be
00000140: 3871 ab3e ccf6 b9bb c838 e53e 7d28 49bd
00000150: 19a3 55be 4bca 51bd e72e a1be 4f1b 18bd
00000160: 439e 4b3b f793 d13d 9e76 423e 1ea2 893e
00000170: 2b6d c2be b4f1 2c3f 308e 0cbf 1d6e 603e
00000180: b3c6 ea3e 723b bb3c 4ce9 d63d be16 643d
00000190: 7c38 cabe 859a 523e 1263 5a3b 946b de3b
000001a0: 03f9 993e f186 c73e 2480 a0bb b23b f83d
000001b0: 1d52 a3be 762b 593e 3693 fbbc 8c2e b13e
000001c0: b325 733e f2c8 093e 192c 98be d71f 143f
000001d0: 2819 ca3e 5b1e e03d 4015 3b3c 89d0 33ba
000001e0: 7b88 a03d d518 2cbd dfcd 93bd 0eb1 b3bd
000001f0: 99af 2e3d fbe7 ebbc 80e2 463e e24d f03d
00000200: 3275 49be dac8 233e 5ded 933e 3375 83bc
00000210: 9a5c 28bc 01c5 4dbd ed89 14be 9181 ddbc
00000220: 316e ed3d 0479 9cbd 9de0 87be 599d 873e
00000230: 8b4d 12bb 7bfd 033e 1ce0 c0be 2a99 8cbe
00000240: 7b1e f5ba 4dba 393e 9486 9a3e 8e04 a03c
00000250: 6ad4 b2bd cbb0 813d 2486 323e 8a7b 5f3d
00000260: 81c3 eb3c 764f 653e 7ab3 5abd 9a16 81be
00000270: 4b48 33be dd88 413c 00a8 853d 6f6a c43e
00000280: 335e 33be 3730 723d 722c 933e 2fc3 933e
00000290: 2fbf a3bd 53ab 72be 7dad cabd cbc8 b2bd
000002a0: a8ff 813e 5000 d2bd 790e 883d 58cd 203d
000002b0: 0c92 ab3e 882b bb3e 43e6 08bf 3fc2 143d
000002c0: 3cdd e13c 73ef 943e 21f7 1b3e 7b33 2f3e
000002d0: df56 263e 1f63 3bbe 8550 83bd 409b b23b
000002e0: 416e 973e 3dc4 b73d 7fef 363d aed8 913e
000002f0: a353 d63e 84f4 053d 17e3 b73d 7160 2ebe
00000300: c0b4 953e 7474 523d 3bf7 9a3e 8906 b4bd
00000310: 9ece a3be 8266 97be 76b7 fcbe e6ad d4bd
00000320: 1e55 06be 5d6e 5bbe 6fcb 2f3e 483e edbc
00000330: 02e3 1bbe df95 c3bd 15e8 553e 281d 863d
00000340: b03e e53e 9d15 d2be b135 5bbd 57fa 5ebe
00000350: 6a8c af3e b14c 82be c4c8 12be 7207 4d3e
00000360: efc5 883e 2149 97bd 1d95 033d 3ca7 16bd
00000370: 880d 683e 689a 5f3e a50d 343b 7577 7c3e
00000380: 0dcf 963e fd05 04bd 1c61 5d3d 0e91 053e
00000390: d174 833e 5c30 313e 269e d13e f343 433d
000003a0: 7349 ac3c 2485 5fbc 0f80 3ebb 0244 c73e
000003b0: d42e eebd 4a58 f63d 790e ebbd f316 aebe
000003c0: 98c3 ad3c 7f48 c5be 25a2 903e 71cc 9d3d
000003d0: cbb9 c4bd 47b9 08be 3ca1 d3bd 2ab0 983e
000003e0: 769f 00be 52f2 2dbf 44e1 993d 19c9 c0bd
000003f0: b372 f33d 3c89 86be eeb5 c2bb 1310 633e
-0.30844337 0.115163915 0.070970714 -0.05042678 -0.13782258 -0.09626643 -0.16521592 0.06379665
-0.17418255 0.16255234 -0.10657793 0.093778074 0.14703618 -0.13182133 0.011143532 -0.042599667
-0.06885619 0.19787207 0.24789622 0.12520097 0.11400064 -0.023012754 -0.15628923 0.07034506
0.11093487 0.10958272 -0.19807 -0.070154734 -0.27432662 0.04052838 -0.21501713 0.15603632
0.16217054 -0.11723456 -0.06413918 0.12555455 0.07323914 -0.03039442 0.0362936 0.039138056
0.3874252 -0.31601912 -0.070180595 0.13986798 0.20188744 -0.082725875 0.016374659 -0.28984088
-0.0911475 -0.04182477 -0.056699228 0.19597884 0.31946194 -0.10083134 0.009445193 -0.28013083
-0.05506681 -0.16142623 -0.024447992 0.0150179835 0.3724018 0.07706372 0.0076101595 -0.06855586
0.103854425 0.14735968 0.10310095 0.25859818 0.034651168 0.08698301 -0.2307262 -0.34019622
0.33576196 -0.5785468 0.016766123 0.023405576 -0.117117696 -0.31068647 -0.4530717 -0.3485856
0.33484817 -0.0056751724 0.44769883 -0.04911088 -0.20862998 -0.051218312 -0.31481096 -0.03713542
0.0031069673 0.102333 0.18990561 0.26881498 -0.37973914 0.6755631 -0.5490446 0.21917005
0.4585472 0.022855494 0.104937166 0.05568575 -0.3949622 0.20566757 0.003332321 0.0067877267
0.30072793 0.3897014 -0.004898088 0.12120761 -0.31898585 0.21207985 -0.030709844 0.34605825
0.2374485 0.13455561 -0.29721144 0.57861084 0.39472318 0.1094329 0.011418641 -0.0006859382
0.078385316 -0.04201587 -0.07217001 -0.08774005 0.04264793 -0.02879714 0.1942234 0.11733605
-0.19673613 0.15994588 0.2889203 -0.016047096 -0.010275984 -0.050236706 -0.1450574 -0.027039321
0.11593283 -0.076402694 -0.26538554 0.26487234 -0.0022324051 0.12889664 -0.37670982 -0.27460605
-0.00187011 0.18137474 0.301808 0.019533422 -0.08731921 0.06332549 0.17433983 0.054561175
0.028779747 0.22393593 -0.05339382 -0.25212556 -0.17508046 0.011812416 0.06526184 0.38362452
-0.17516403 0.059128013 0.28744847 0.2885985 -0.0799545 -0.23698168 -0.098963715 -0.087297045
0.25390363 -0.10253966 0.066433854 0.03925833 0.33509862 0.3655665 -0.5347635 0.03631806
0.027571313 0.29088935 0.15230991 0.17109482 0.16244076 -0.1829953 -0.06411842 0.005450636
0.29576305 0.08972976 0.044661995 0.28485626 0.41860685 0.03270389 0.08978861 -0.17028977
0.29239464 0.05138059 0.30266747 -0.08790309 -0.31993574 -0.29570395 -0.4935872 -0.10384731
-0.13118407 -0.21428819 0.17167448 -0.028960362 -0.15223315 -0.0955007 0.20889314 0.0654853
0.4477439 -0.41032115 -0.053518 -0.21775185 0.34286815 -0.25449136 -0.14334399 0.20022371
0.2671351 -0.07386995 0.032124627 -0.03678058 0.22661412 0.21836245 0.0027473953 0.24654944
0.29454842 -0.032232273 0.05404769 0.13043615 0.2567506 0.17303604 0.4094097 0.047672223
0.021031117 -0.013642583 -0.0029068028 0.38919073 -0.116300255 0.120285586 -0.1147737 -0.34001884
0.02121143 -0.38531873 0.28248706 0.0770501 -0.0960575 -0.13351928 -0.103334874 0.29821903
-0.1256083 -0.67947876 0.07513669 -0.09413356 0.118871115 -0.26276577 -0.005942098 0.221741

weight_hh_l0 f4 [300, 100]
00000000: 2ebe b93e 6ee7 423e cce7 cf3d 5f10 d73e
00000010: 44ef a8be 5596 3f3e ddc1 cf3b b5f6 973e
00000020: 7ce1 c33c 95a1 08be f2a3 d83e d59a 21be
00000030: 64df 923e cd13 63bd 5a71 36be b352 5d3e
00000040: 1278 e9bd 3b98 9a3d 4240 01be 259c fabe
00000050: c779 0ebe 6704 20be c33b 9abe fea1 543f
00000060: 8c2d 90bd 3a3f 9e3d 21ef 1abe 266f 47be
00000070: c202 c7be 9433 853e 4905 b6be 7e88 e83c
00000080: 2509 983d 5865 f43d 3de0 dabd ec70 fe3d
00000090: cfbe 45be 64c5 60be 76b7 17be 37f9 2c3e
000000a0: 77a9 debd 09d2 373e f87f 953e 16af 593e
000000b0: ebe9 d1bb 3d6e 363e 29eb 48be 8426 c8bd
000000c0: 4084 3ebe 0bdb 20be c744 3fbe a291 233f
000000d0: ab6b e8bd 693c 66be b052 8e3c af6b 88bd
000000e0: 0bba b13e 72ed 20be 20cd f8bd 39a3 cc3a
000000f0: 8af7 a03a 010e 483e bd13 6e3e 1b2a 793d
00000100: a1b9 833e 36cc 383d 772c 5cbe bc58 9fbe
00000110: 907a 19be 560f 60bc 57e0 813d 260f 49bd
00000120: b42d 303e bd20 593e a555 7bbe e34e a5be
00000130: ea5e 2d3c ddf2 39be 2d8b 093d cbd8 39be
00000140: 54d6 03bf 92da 14bc f853 4d3e 0aa8 74be
00000150: 1865 9f3e 8ed6 ca3e 98a3 cdbd ed11 12be
00000160: 5384 033e 0ccf 6e3e 3556 5b3e 1286 9abe
00000170: 3885 a53d e549 3dbc 4c72 073e 4793 96be
00000180: e3bf b13e f6fa 34bf 16eb a9be 59d6 0a3e
00000190: a0f0 e0bd 5708 1c3e 47a4 fabc 972d 2c3e
000001a0: 3be8 133d 270d 93bd 420a be3c 1d40 c03e
000001b0: ba45 f7bd b5ed 313e 7b8a 853d f2dd 5f3e
000001c0: 4bf3 d3bd fffe 2b3e 7a4f b93d 611d 173e
000001d0: e8d8 153e d7bf f7bb 4508 51be e188 393d
000001e0: 3176 9c3e 3d24 7dbd 7416 1e3e c515 993c
000001f0: dbcb 9d3c 10ba 243e 57c4 d8bd b59e 6abe
00000200: 1c72 873d 6487 863e a4ca d3be 98a8 533c
00000210: 2172 ee3d d4c5 88be 6835 7fbe 56f4 32bd
00000220: e2f2 90bc d847 4e3f a285 a23e dd4f 64be
00000230: 16d1 733e bad2 ea3e bb11 eb3d f083 c73d
00000240: bf94 a43d cb10 0abe d955 a73e fd65 61be
00000250: fd64 e53d 6eef 75bd aabd 48be 6011 ea3d
00000260: 4d0a e93d 0c61 bf3e b1ee e1be 595c 41bd
00000270: 9ee7 70bd 0beb ce3e beff 7a3e 19f2 2c3d
00000280: 3470 2cbe 33f9 a43e f5f2 83be c7cb 823e
00000290: ed96 afbd a059 9e3d 511a 183d db88 22bd
000002a0: b286 b6bd 851f 2ebe d589 2f3e bf5d fa3d
000002b0: 164d 623e 151d b8bd d145 31be aa7e e8bc
000002c0: f502 6a3e 791e dc3d 7932 26bd cec5 1cbd
000002d0: f86e 873d e6b2 3f3e 7feb 893e 0878 f83d
000002e0: 5ccc 22bd 14e8 c83d bb60 febd aa4c cabd
000002f0: df84 39bd 9b28 34bd 61ef 303e 6795 0abc
00000300: 1345 783e a616 363d 7e38 13be ab14 3dbc
00000310: e567 cd3d 99cf 883e 6c8d f73e d069 99be
00000320: 2210 85bd e12c 0cbd 80cc b63d 1487 31bd
00000330: f119 2d3d 1a61 8cbe 8bdf f53e 1afe 4b3c
00000340: e781 94be 2625 a5be 0e8e 9f3e f169 963c
00000350: 886b 3f3e d8aa 693c aa19 033e 42e1 ca3e
00000360: 4a8f e33b b6a4 503c a16d 06be 18ee 243e
00000370: 83f2 ccbe d799 2dbe a4b2 99be ffd4 3ebe
00000380: e3f8 ee3e 6f2a c2bc 6870 05be 41c1 77be
00000390: 30bd b03e 32b2 763d d1d3 02be 736b 3d3e
000003a0: a488 2bbe f291 31be e9af 053d 3749 743e
000003b0: 6744 c7bd bc56 c9bd 8ff7 2dbd 044a 84be
000003c0: fdd7 36be cf3b 4ebc bebd abbe 0b5a 54bd
000003d0: b2d8 f93e cfd5 06be 9911 5ebe 74d9 9fbe
000003e0: bcab 8bbd 2517 71bd 8d3c 7bbd f1be 1e3e
000003f0: 1e45 84bc 25c1 e7be 4eba 753e 728c 80bc
0.36277908 0.19033596 0.101516336 0.42004678 -0.32995045 0.18709691 0.006340249 0.2968041
0.02391123 -0.13342889 0.4231258 -0.1578172 0.2868606 -0.055438805 -0.17816678 0.21613578
-0.11399855 0.07548567 -0.12622169 -0.48947254 -0.13913642 -0.1562668 -0.3012372 0.8305968
-0.070399374 0.07726903 -0.15130283 -0.19475994 -0.38869292 0.26015913 -0.35550907 0.028385397
0.07423619 0.11933392 -0.10687301 0.12423882 -0.19311069 -0.21950299 -0.14816079 0.16891943
-0.108721666 0.17951216 0.29199195 0.21258196 -0.006406059 0.1781549 -0.19620956 -0.09772971
-0.18605137 -0.15708558 -0.1867858 0.63894093 -0.11348661 -0.22483982 0.017373413 -0.06661164
0.34712252 -0.15715578 -0.121484995 0.0015612609 0.0012280804 0.19536592 0.23249717 0.06083117
0.2572756 0.045116626 -0.21501337 -0.31122386 -0.1498816 -0.013675531 0.063416176 -0.049086712
0.17204934 0.21203895 -0.2454439 -0.32286748 0.010581711 -0.18159051 0.033579994 -0.18149106
-0.51498914 -0.009085314 0.20051563 -0.23892227 0.31131816 0.39616817 -0.10040969 -0.1426465
0.12843446 0.2332117 0.21419604 -0.30180413 0.0808205 -0.011553262 0.13227195 -0.2940924
0.3471671 -0.70695436 -0.3318717 0.1355833 -0.109833956 0.15237556 -0.030595912 0.16814266
0.036110144 -0.07180243 0.02319825 0.37548915 -0.12073846 0.17375834 0.06520554 0.21862009
-0.10349139 0.16796492 0.09048362 0.14757301 0.14633524 -0.007560711 -0.20413311 0.045296554
0.30558923 -0.061802138 0.15438253 0.018687138 0.019262245 0.16086602 -0.10584324 -0.22912104
0.066135615 0.2627517 -0.4136554 0.012918614 0.11642862 -0.2671343 -0.24922717 -0.04369005
-0.01769394 0.80578375 0.3174258 -0.2229609 0.23810229 0.45863897 0.11477991 0.09741962
0.080361836 -0.13482969 0.32682684 -0.22011562 0.112009026 -0.06004279 -0.19603601 0.11429095
0.11378918 0.37378728 -0.4412742 -0.04720721 -0.058814637 0.404137 0.2451162 0.04222307
-0.16839677 0.32221374 -0.257713 0.25546095 -0.08573709 0.07731938 0.037134472 -0.039681297
-0.0891241 -0.17004211 0.17142422 0.12224912 0.22099718 -0.08989922 -0.17311789 -0.02838071
0.2285269 0.10748 -0.04057548 -0.03827458 0.066129625 0.18720588 0.26937482 0.12132269
-0.039745674 0.098098904 -0.124207936 -0.09877904 -0.04529273 -0.043984037 0.17278816 -0.008458472
0.242451 0.044455193 -0.14377019 -0.011540572 0.10029582 0.26720884 0.48350084 -0.2996354
-0.06497218 -0.034222487 0.08925724 -0.04334171 0.042261068 -0.27417833 0.48022112 0.012450719
-0.29005358 -0.32254905 0.31163067 0.018361064 0.18693364 0.014261924 0.12802759 0.39624983
0.0069445716 0.012734583 -0.13127758 0.1610645 -0.40028772 -0.16953216 -0.30019104 -0.18635939
0.4667426 -0.023701875 -0.13031161 -0.24194814 0.3451934 0.060228534 -0.12776114 0.1849802
-0.16751343 -0.1734083 0.032638464 0.23856054 -0.097298436 -0.098309964 -0.04247242 -0.2583772
-0.1785583 -0.012587502 -0.335432 -0.051843684 0.48798138 -0.13167499 -0.216864 -0.3122059
-0.06819865 -0.058859963 -0.061337043 0.15502526 -0.016146239 -0.45264545 0.23996851 -0.01569197

bias_ih_l0 f4 [300]
00000000: ced0 6c3e 2e11 27be a493 0fbe 0d26 2c3e
00000010: 74c9 8d3d fc42 05bd 7172 363d e7f1 2a3e
00000020: 063c 0abe 5c02 58bd 5707 14bd 05f8 623e
00000030: c81d ff3c 2388 463e 79ed 95bd b588 e4bc
00000040: 8a1d 6fbd 4374 253d 6787 20be 9bb2 c73e
00000050: 6ffe 3b3e a48e c5bc 46bc 1b3e c5ad 843e
00000060: 95e2 9abd 9de2 8cbd 7d4f 8dbd 8b34 983d
00000070: a2cc 573e 3aa4 65bc ca5f 743d 82d7 1e3e
00000080: bd39 ad3c 45ce 40be b38a 403e a743 f83d
00000090: f421 1bbe 5cf7 a03d 2f75 1a3e 6861 d6bd
000000a0: 8bb5 b93d 9728 f03a 4935 a43d abfc 53bd
000000b0: abfa 4dbe b017 9cbd f4f9 b43d 995f b6bb
000000c0: bb56 033e 5cfa ca3e 703b 85bd 7b9e 5f3d
000000d0: 644f a6bd cbfe 8dbd 097b 163e 6b22 d9bd
000000e0: 46fe 663e c2f9 aabc 49c6 26bd dd08 91be
000000f0: 9bad 043c 4e50 763d 8214 04be 01d7 4a3e
00000100: 0e69 8e3d bb75 34bc dcac 893e f412 573d
00000110: 8b0f c4bd 3dac d03c 53b1 3cbd d4bb 72bd
00000120: 16a4 253e f326 5c3d ac44 763d 1364 7b3e
00000130: 7a6e 6a3d 0f27 353e a714 c93d 9071 1e3d
00000140: d6fc 6b3e 0c2f d13d 81a2 d03d b3c0 de3d
00000150: d123 d73e b0ff 523d 2c46 75bd b62d 393e
00000160: 75ad ea3d fa0c 8c3d c0ca 653d 9c1f 0539
00000170: 73a6 0cbe cd64 3b3e 5d01 293e 1fbe b1bd
00000180: 8afc e93d e078 613e 7096 18bd 3452 f23d
00000190: c187 863e 6fcd 4cbe f41f 8abe c48d 16be
000001a0: d77f 3cbe c5ee 9d3e 250f 3dbe 9612 8f3e
000001b0: 7b16 64be a063 83be 70c7 8dbe cb24 ad3e
000001c0: 41ee b3be c84b 263d feb0 cebd f417 d1bd
000001d0: 1463 70be 274d a6be bca9 37be 60af e03d
000001e0: 317e a63e 0e77 4fbd d809 d7bd 8735 5a3e
000001f0: ee7b f03c f074 bbbe b942 5cbe a633 aebc
00000200: 866f 603e 1c1a 8cbd da86 88bd 3f48 efbb
00000210: 5406 a6bd 55d4 a03e 15ee 4dbe f38b 963b
00000220: 7598 47bd 84e5 723c 098b 86be 8ff8 2ebc
00000230: 387d 55be ea75 043e 00cb c03e d13a 55be
00000240: 7ad1 67bd 58b0 32be d884 5c3d d5ca 9ebc
00000250: 22ee c03e 7380 243d 59cd e23b 54be 5abe
00000260: d2a7 88bd 0fea cabd beb7 b4be 9bb8 9cbc
00000270: fbe7 bfbd 0a0e 9bbe 4924 b1bc f9de 95be
00000280: d9cf a63e 6bb3 32be d0ec 1c3c 3443 693d
00000290: 0dc2 9dbe b781 83be b95b 97be 8a0d 033f
000002a0: b979 803e 9be7 51be b98b bcbe 040f 1ebe
000002b0: 0f9e 73bd 6dff 8cbe 7001 39be 59e7 a3be
000002c0: 9f24 963e a498 5e3d 6bf2 ea3c a601 34bd
000002d0: 9b1e ef3d 7e55 70be fcf4 8cbe 79fc 3dbe
000002e0: 92d5 803e dfb2 0ebd 660b 0fbe 84ca 57be
000002f0: 32c3 203d f6eb 033f c297 39be 4431 65be
00000300: 568d 72be 7357 123f f6ca 63be 68cd 2e3c
00000310: 26db 3f3e 0c7c e53c a06d adbd e458 3dbe
00000320: 177e 6b3e 1ec7 7d3d a299 3a3e 5e8e 963a
00000330: 824e 2cbe d262 103c aa7f 4abd 96c9 c2bd
00000340: db20 51be 7798 55bd f530 fbbd 645d eebd
00000350: 2f26 a33d e4a1 3cbd dbe2 17be 75de bd3c
00000360: a3fe f63d 344f c3bc 518f 9f3c ee83 acbe
00000370: 5002 ad3e 797e 183c a909 c13d bf72 6cbe
00000380: 8999 823e 3b0c dabd 8ac8 f3bd e8ff 763e
00000390: da7b 2abe e1cf 88be f34d b0bd a79b 833c
000003a0: 7f88 89bd b33e 35be 90bc a23c 4a81 3c3c
000003b0: 57c5 ba3a 0df1 633d a452 71be 8c05 c83c
000003c0: cabe 42bd c3be 4abe 1997 39bd 10af 813e
000003d0: 4cde d5bc e95b d83d 696a 073e 4499 a03d
000003e0: 53e5 a0bd 62d1 7ebe 6c2c a4bd c000 163d
000003f0: fb91 30bd 8ed8 45be 4693 fbbb 5dc5 80be
0.23126528 -0.16315147 -0.14021164 0.1681139 0.0692319 -0.032534584 0.044542734 0.16693841
-0.1349946 -0.052736625 -0.036139812 0.22164924 0.03114213 0.1938787 -0.07320685 -0.027897218
-0.05837778 0.04039408 -0.15676652 0.39003453 0.18358777 -0.024115868 0.1520854 0.25913826
-0.07562748 -0.068791606 -0.06899927 0.07431897 0.21074155 -0.014016205 0.059661664 0.15511897
0.021145696 -0.18828686 0.1880291 0.12122279 -0.15149671 0.0785968 0.15083764 -0.104677975
0.0906783 0.0018322644 0.08017976 -0.051754635 -0.20115153 -0.076217055 0.08836737 -0.0055655953
0.12826054 0.39644134 -0.065054774 0.054594498 -0.08120611 -0.069333635 0.14695372 -0.10602268
0.22557935 -0.020871047 -0.040716443 -0.28327075 0.008098031 0.06013518 -0.12898448 0.1980858
0.06953631 -0.011014397 0.26889694 0.05250831 -0.09573277 0.025472755 -0.046067547 -0.059261158
0.16175875 0.053748082 0.060124084 0.24549894 0.057234265 0.17690681 0.09818392 0.03868252
0.23045668 0.102140516 0.10187245 0.10876598 0.42019513 0.051513374 -0.059881374 0.18083844
0.114588656 0.068384126 0.05610156 0.00012695644 -0.1373537 0.18300171 0.16504426 -0.08678841
0.11425121 0.22018766 -0.037252843 0.11832085 0.26275447 -0.20000242 -0.26977503 -0.14702517
-0.18408142 0.3084623 -0.18462808 0.27943867 -0.222742 -0.25661945 -0.2769122 0.33817133
-0.3514271 0.040599614 -0.10092352 -0.10209647 -0.23475295 -0.32480738 -0.17935842 0.1097095
0.3251815 -0.05065065 -0.104999244 0.21309482 0.02935597 -0.36612654 -0.21509828 -0.021264862
0.21917543 -0.068409175 -0.06666346 -0.0073023136 -0.08106676 0.31411996 -0.20110352 0.00459432
-0.04872938 0.014825229 -0.2627795 -0.010679378 -0.20848548 0.12935606 0.37654877 -0.20823218
-0.056596257 -0.17450082 0.053837627 -0.019383827 0.3768168 0.04016156 0.006921452 -0.21361667
-0.06672634 -0.099079244 -0.35296434 -0.019130995 -0.09370419 -0.30284148 -0.021623747 -0.29271677
0.3258045 -0.17451255 0.009577945 0.056948856 -0.30812111 -0.25684902 -0.29562166 0.51192534
0.25092867 -0.20498507 -0.3682535 -0.15435416 -0.05947691 -0.27538624 -0.18066955 -0.32012442
0.29324815 0.05434479 0.028680047 -0.043946885 0.116757594 -0.23470113 -0.27530658 -0.18553342
0.2516294 -0.034838554 -0.13969192 -0.21073347 0.039248653 0.5153192 -0.18124297 -0.22382075
-0.23686728 0.57164687 -0.22245392 0.01066909 0.18735942 0.028013252 -0.08468175 -0.1849094
0.22997318 0.06195747 0.18222669 0.001148652 -0.16826823 0.008812623 -0.049438156 -0.09511106
-0.2042269 -0.052147355 -0.12265197 -0.116389066 0.07966267 -0.04605283 -0.14832632 0.023177365
0.12060287 -0.023841478 0.019477518 -0.33694404 0.33790827 0.009307497 0.09425671 -0.23090647
0.25507763 -0.10646864 -0.11903484 0.24121058 -0.16648808 -0.267211 -0.08608618 0.016065432
-0.06715488 -0.17699699 0.019865304 0.011505434 0.0014249486 0.055649806 -0.23566681 0.024416707
-0.047545232 -0.19799332 -0.045310114 0.25328875 -0.026106976 0.105644055 0.13224186 0.07841733
-0.0785624 -0.2488456 -0.08016285 0.03662181 -0.043107968 -0.1932089 -0.0076774685 -0.25150576

bias_hh_l0 f4 [300]
00000000: 3946 303e 2fd5 63bd 6ddf 58bd fe09 1bbc
00000010: 5b42 933d 2848 823c c631 0c3e aefc 0f3e
00000020: 4030 4abe 59e0 2bbe 124d 8cbd 1779 8e3e
00000030: 525a d73d 6ae9 833e 08e1 25bd 60bf 2ebe
00000040: 612f f3bd ece4 e3bd b3b7 02be 0b9a bc3e
00000050: bee9 f03d 2e5e b5bd 7317 e13d fbe4 4f3e
00000060: a5e2 0bbd 367f 8cbd babb 04be 07e1 a63d
00000070: 1861 1b3e 3b84 973d 35c6 f93c 2135 143d
00000080: c01a 7bbc 5449 c4bd 6b9f 503d dab0 243d
00000090: e440 51be 5a2b 58bd f3f9 9c3e 7862 69bd
000000a0: 42da 1e3e 95bf 30bc 122d 29bd b66a f5bd
000000b0: e4b6 68be f166 afbd 7e11 f13d fb92 e9bc
000000c0: a654 4c3e 67bd 6d3e 16d3 d43d 6d2f eabb
000000d0: 8df2 483c 4991 54bd 9ffd df3d 2b08 92bc
000000e0: 8516 9f3e edd0 56be 15dd 70bc d305 11be
000000f0: 3de2 e8bc bb87 47bc 78ec 9dbc 14d0 6f3e
00000100: e3c1 503d 2157 ffbb caca 333e c530 57bd
00000110: 11e8 e0bd 03cd eb3d 34c0 8fbd e2c3 55bd
00000120: 8d40 613e c32c 22bd 07d0 c13d c829 5d3e
00000130: f89a 683c fd97 b23d 35fe b43d e9b6 8a3d
00000140: 3fe9 983e 1e6e f63d bce3 fa3a bde2 053d
00000150: a352 e13e ad7b aa3d 197a 0dbe 3ca6 8a3e
00000160: 8ef1 1b3c a8e9 5f3d 5924 b43d 37af 76bd
00000170: f0b8 5eba f5a1 843d 8bbf 33bc e431 ed3c
00000180: 12c0 dd3d ed95 1c3e a09e 18bd de7e 153e
00000190: 656c de3e 3f62 00be ec20 0fbe 16ab d0bd
000001a0: 1eb5 edbd 00dc 033e 422b 16be d69a 6f3e
000001b0: a35c cfbd 6e99 8ebe 034d e5be 3671 933e
000001c0: 50a4 8dbe 1d21 e03d 9cce 4e3c 5234 f4bd
000001d0: 6069 49be cb52 94be ce3e 21be f1f9 f73d
000001e0: e1fa b23e 7a90 16bc 7ae4 893d da37 593e
000001f0: 0a42 9ebd 801a c1be 824e 85be 8041 713d
00000200: 56c3 c03e 6708 8fbb bfbf a8bd 7f7c 95bd
00000210: 6283 67bd b395 2d3e 369e b2bd afd9 d13b
00000220: 822f 09be 5750 ee3d d373 8abe ac18 ad3d
00000230: 3af2 15be f361 7c3e 3701 6e3e 3fc5 24be
00000240: 6bba cfbd 7f60 dfbd b19f 2cbb 7f2f 98bd
00000250: b019 c93e 1024 d13d 4f5d 88bd f284 80be
00000260: 3254 05be 2e01 7dbd 3ba1 a8be c7ad e5bc
00000270: b727 6d3d 5a49 67be b977 a5bb f953 77be
00000280: 5ae6 ab3e 4745 eebd 24bb fe3b 3626 1c3e
00000290: d9f8 8abe c102 adbe 4f37 95be db1b ee3e
000002a0: 1227 4e3e 5c3d 09be 44f1 00bf 93c6 1cbe
000002b0: 7caf 5b3d 0e57 63be e2b1 6dbe c19b 85be
000002c0: 0c4c 003e 3033 73bd c534 d9bd 5f80 8a3c
000002d0: fb61 8c3e 8b44 05be e390 95be b74a aabd
000002e0: 0a8a 853e b8eb acbc 0514 2fbc a8a2 92be
000002f0: 3bf5 683d 7783 f03e 3d4e 28be 4ed3 45be
00000300: 1e08 85be 02ad df3e 4208 59be 5cc3 fbbd
00000310: 24b3 5c3e fcab 6cbd fe49 47be 95a2 a7be
00000320: 7422 7b3e c6d0 c73d 222c eb3c 2a38 0b3e
00000330: 2963 3bbe ad83 913d 8e19 66be 0d5b 133d
00000340: 2749 54bd c758 b43d a68d 113e c4af a9be
00000350: da8f 8b3e 6e31 91be 7a92 af3d f89e bebb
00000360: 5bc5 87be cec6 453e 0d38 efbc 2301 0dbf
00000370: d8b7 9d3e 8e6b 0dbe b0b5 62bc dbbb ae3d
00000380: 9d60 ffbd 3211 6ebe 0707 d13d 85a7 a03e
00000390: 9bc0 2dbe aace 9e3d 98c8 82be a937 513e
000003a0: da18 1cbd 0647 0d3e f555 0f3e bdd9 52bd
000003b0: 0813 3bbe ba9b 393d 7124 c6be 4b08 4fbb
000003c0: 9fcf 7dbe abb2 d33d 74a8 3f3e 7f07 a13c
000003d0: 5741 743d 6104 733d e80b 26b7 cc12 4cbd
000003e0: 6c68 a63e bb87 adbe 9840 e9bd 7b4f a03e
000003f0: 96d0 303e 8d2c a73d d638 213e 9554 6d3d
0.17214288 -0.05562323 -0.05294745 -0.009462832 0.07190391 0.015903547 0.13690862 0.14061233
-0.19744968 -0.167848 -0.068506375 0.2782676 0.10515274 0.25764018 -0.04049781 -0.17065191
-0.11874271 -0.11127648 -0.12765388 0.36836275 0.11763333 -0.08855854 0.10990801 0.20302193
-0.034151692 -0.06860201 -0.12962237 0.08148389 0.15173757 0.07398268 0.03049002 0.03618348
-0.015326202 -0.09584299 0.050933283 0.04020772 -0.2043491 -0.05277572 0.30659446 -0.056978673
0.15512946 -0.010787864 -0.041302748 -0.11983244 -0.22726017 -0.085645564 0.117709145 -0.028512469
0.19954166 0.23216783 0.10391824 -0.007146767 0.01226486 -0.051896367 0.10937046 -0.01782616
0.3107187 -0.20978136 -0.014701148 -0.14162378 -0.028428191 -0.012178357 -0.019277796 0.2341922
0.050966155 -0.007792369 0.17557827 -0.052536745 -0.10981763 0.11513712 -0.07019082 -0.05218876
0.2199728 -0.03959347 0.09463506 0.2159797 0.014197104 0.08720396 0.08837549 0.067731686
0.29865453 0.12032722 0.0019141356 0.032686938 0.4400836 0.083243705 -0.13816108 0.27079952
0.00951804 0.05466619 0.08795995 -0.06022569 -0.0008496186 0.06476203 -0.01097096 0.028954454
0.1082765 0.15291567 -0.03726065 0.14599177 0.43442073 -0.12537478 -0.13977402 -0.10188882
-0.11606811 0.12876892 -0.14664939 0.23398909 -0.10125091 -0.27851433 -0.44785318 0.2879731
-0.27664423 0.10943816 0.012622502 -0.11924042 -0.19669104 -0.28969416 -0.15746614 0.121082194
0.3495703 -0.009189719 0.067330316 0.21212712 -0.0772744 -0.3771553 -0.2603646 0.058900356
0.3764903 -0.0043650153 -0.08239698 -0.07299136 -0.05652178 0.16951637 -0.087215826 0.0064041237
-0.13397029 0.11636417 -0.27041492 0.084519714 -0.14643183 0.2464674 0.23242651 -0.16090868
-0.10142978 -0.10907077 -0.00263403 -0.07430934 0.3927741 0.102119565 -0.06658422 -0.2510143
-0.13020399 -0.061768703 -0.3293551 -0.028036965 0.057899203 -0.22586575 -0.0050496724 -0.24153127
0.33574182 -0.11634307 0.0077737737 0.15248951 -0.2714298 -0.33791164 -0.2914376 0.46505627
0.20132092 -0.13402313 -0.5036814 -0.15310125 0.05363415 -0.22201177 -0.23212388 -0.26095393
0.1252901 -0.059374988 -0.10605768 0.016906915 0.27418503 -0.13014428 -0.29212102 -0.08315032
0.26081878 -0.021108493 -0.010685925 -0.28639722 0.056874495 0.469753 -0.16436096 -0.19318888
-0.25982755 0.43686682 -0.21194556 -0.12293121 0.21552712 -0.057781205 -0.1946182 -0.32741228
0.24524862 0.09756617 0.028707568 0.13595644 -0.18299545 0.07105193 -0.22470686 0.035975505
-0.051827576 0.088059954 0.14214191 -0.3314191 0.27258188 -0.28358024 0.0857286 -0.0058172904
-0.26517758 0.19314119 -0.029201532 -0.5507986 0.30804324 -0.1381056 -0.013837263 0.08531924
-0.124695994 -0.23248747 0.102064185 0.31377807 -0.16968004 0.07754262 -0.25543666 0.20431389
-0.038109638 0.13796625 0.13997634 -0.051477183 -0.18268979 0.045314528 -0.38699678 -0.0031590636
-0.24786232 0.103368126 0.18716604 0.019656895 0.059632625 0.059330348 -9.897143e-06 -0.049822614
0.32501543 -0.33892617 -0.113892734 0.3131064 0.17267069 0.08162794 0.15744337 0.05794199

weight f4 [1201, 100]
00000000: efdd b3bf 2d26 a1bd 1ef3 073f 2b65 dd3d
00000010: fcc5 293f 16fe 41be d450 51bd 6bad 4c3e
00000020: 102d 69bc 2bcb a2be f9d4 13bf 9329 2840
00000030: 3201 efbe 5c0a e03e 1335 c23e 7017 5cbe
00000040: c315 db3e 626f b7bd b348 0abf 4365 ea3e
00000050: b880 c9be 9a08 a0be b6b2 0f3e e595 b0be
00000060: 0bc2 a73e 4989 ddbd f494 a23e 3a3d 7fbc
00000070: fae1 a83e 0561 79be 84b0 1f3f e594 1b3e
00000080: ba72 c63e a84d 543e 1360 aabd f179 19bf
00000090: 291b f7be 6696 b53e ad29 a83f 59fd 493c
000000a0: 5372 973d 5725 03bc 72ca dc3c f617 183f
000000b0: 2cfa e03d 85a7 cc3d d775 673e b21b c83e
000000c0: 0ef0 9e3e c0a3 393e c09b f4bd 7a28 babe
000000d0: 0341 e8be 231f 1ebe 8f3b b6be 5077 0ebf
000000e0: d52c bdbc 9f3b 7b3c 17c6 b73c 29f1 63be
000000f0: c0f0 bc3e 861e 713e ed75 d2bd 8401 f03d
00000100: 3768 eabe 93d7 173e f95b a33d 844a c8bf
00000110: 8928 213d b7e5 e7bd 5092 e03e de87 0dbc
00000120: 4aaa 64bd 1280 583d c001 ce3d 3c60 a73f
00000130: 61c0 24bd 3cc5 bf3e a9ea 303e ba47 d33d
00000140: 9761 cbbd 6ce9 843f 8c92 063e 6975 0fbe
00000150: 9812 bbbf e57b 163f e254 db3e 971b a9bd
00000160: 4788 5fbe 0ec3 debf 6db0 5e3f a84e 073f
00000170: 9f3b 9f3d fc64 cd3f 95fc 203e e7e6 fc3e
00000180: d066 be3d fcb9 e2be 9fe6 ae3c 7566 053f
00000190: 6e88 f8bf f6e9 92bd 3fb2 2c3e 510e 42be
000001a0: 3934 2a3e 003f 02be 7b73 e83e e602 303e
000001b0: e128 40bd 69c5 12bf 239d 35be ea54 0740
000001c0: 7786 ed3d e928 0a3f f784 9fbe 7577 353e
000001d0: cc1c 0e3f 3920 3cbe 1c0f 11bf 8c91 403f
000001e0: 0ac9 29bf b965 18be 2dfb 32be 3b81 83bf
000001f0: 0d5c 9fbd 5926 513e 0635 51be 1dab f8be
00000200: eb29 333f 3e1a e43e 726c ba3e ee06 d3be
00000210: d9f6 60bd b650 9abe 9338 c3be 7446 17be
00000220: 9cc6 843d 65c7 aa3b b290 323f 0bac 15bd
00000230: 46b9 d5bd eeb3 90be 334f 12bf 634a b33e
00000240: 7b65 683e df5d 90bd eb0f 553d ea49 8e3e
00000250: fb03 c5be 37b6 903e 7c20 013d ff2c 89be
00000260: 03e3 20be d0af 33be 355d 8dbe 3f7c 5cbd
00000270: 4dfe 1ebf 544a 8a3e 275f 363e ca0a 0f3d
00000280: b1b3 943e b949 3bbd 081f 53bd 5b95 173e
00000290: d9b0 11be 29cf 653e bf09 f0bd f23f 94bf
000002a0: 2322 18be c082 febe dd3f 6abc 7eaf 933e
000002b0: a01a 4fbf 0a73 533e ec17 cf3e 13b1 1b3f
000002c0: f076 373c 4373 c13e 6900 853d bbf7 7bbe
000002d0: 386e ea3e ba95 343f 7e0f 513e e13c da3e
000002e0: 4a5a 14c0 f561 a33e 43bb 1a3f f755 b23e
000002f0: 5309 113f b9c6 b8bf debc 1e3f 2b22 623e
00000300: c874 013e 072a 733f cb80 85be a320 193e
00000310: 45f8 01bf 6ae3 babd 2f22 c13e 482d 0e3e
00000320: 835d 6c3e 207f 4f3d 9e4b 07bd f154 053d
00000330: d703 67bd 066f 673e 6614 e8bd eb71 98be
00000340: b0f5 843c cf25 4fbe 4c18 793d 6789 c8be
00000350: 5741 023f eec0 babd 17bd 5bbe 45b4 41be
00000360: a798 943e 2535 9d3e 729f 60be 29fd 2bbe
00000370: 956b 2a3c 7234 ffbd dd40 bfbe 8448 233e
00000380: be6b 1cbe eda3 02be 366f 0abf ef80 8d3e
00000390: 894a abbe 3962 2cbd c6ad 8ebe e181 743e
000003a0: 613e ab3d 2b13 fdbc a2bd 453c 9b41 4dbe
000003b0: 0795 833d 5f3d 53be d36c 01bf e2e2 a9bc
000003c0: 851e a7be 6e7f 1d3d 348c 443e 261e b9bd
000003d0: 29ed 1b3e 01d0 a03d fa6c 6a3e 52e7 5bbe
000003e0: 52aa f33d e67e 80be 0188 173e 6985 063e
000003f0: 8876 593e 2be7 bfbd dd78 753e de55 a33d
-1.4052104 -0.078686096 0.5310534 0.10810312 0.66317725 -0.18944582 -0.051102474 0.19988029
-0.014231935 -0.3179563 -0.57746845 2.6275375 -0.466806 0.43757904 0.37931117 -0.21493316
0.4279004 -0.089567915 -0.5401718 0.45780382 -0.39356017 -0.31256562 0.14033017 -0.3448936
0.3276523 -0.10817201 0.31754267 -0.015578562 0.32984906 -0.24353416 0.62378716 0.15193518
0.38759404 0.20732749 -0.08319106 -0.5995169 -0.4826291 0.35466307 1.3137718 0.012328469
0.073948525 -0.008004508 0.026952002 0.5941156 0.109852165 0.09992889 0.22603546 0.3908363
0.31042522 0.18128872 -0.119437695 -0.36359006 -0.453621 -0.15441565 -0.35592315 -0.55650806
-0.023092667 0.015334039 0.022433324 -0.22259964 0.36902428 0.235468 -0.10276399 0.11719039
-0.45782635 0.14828329 0.07976527 -1.564774 0.039345298 -0.113231115 0.43861628 -0.00863835
-0.055826463 0.052856512 0.100589275 1.3076243 -0.04022253 0.37455165 0.17277016 0.10316415
-0.09930723 1.0383735 0.1314184 -0.14009632 -1.4615049 0.587828 0.42838198 -0.082572155
-0.2182933 -1.7403276 0.86987954 0.52854395 0.07775044 1.6046443 0.15721352 0.49394915
0.09296954 -0.4428252 0.021350203 0.5210946 -1.9416635 -0.07173531 0.1686487 -0.18950774
0.16621484 -0.12719345 0.45400605 0.17188606 -0.046913985 -0.57332474 -0.17735724 2.1145577
0.11597913 0.53968674 -0.31156132 0.1772135 0.5551269 -0.18371667 -0.5666368 0.75222087
-0.66322386 -0.14882554 -0.17478628 -1.0273813 -0.07781229 0.20424785 -0.20430383 -0.4856805
0.69985837 0.4455127 0.36410862 -0.41216224 -0.054922912 -0.30139703 -0.381291 -0.1477297
0.06483194 0.005211758 0.6975204 -0.036541026 -0.10435729 -0.28262275 -0.571521 0.3501769
0.22694962 -0.070491545 0.052017134 0.27790767 -0.384796 0.2826402 0.03152512 -0.26792142
-0.15711598 -0.17547536 -0.27610174 -0.053829428 -0.6210678 0.27009833 0.17809735 0.0349224
0.29043344 -0.045724604 -0.051543266 0.14803068 -0.14227618 0.22442307 -0.11720609 -1.1582015
-0.14856772 -0.4970913 -0.014297453 0.28844827 -0.809 0.20649353 0.40447938 0.6081707
0.0111977905 0.3778325 0.06494219 -0.2460622 0.45787215 0.70540965 0.20416066 0.42624572
-2.3180108 0.31910673 0.6044199 0.3483121 0.5665485 -1.4435645 0.6200694 0.22083347
0.12642205 0.94986004 -0.26074824 0.14953856 -0.50769454 -0.09125407 0.37721393 0.13884461
0.23082547 0.050658345 -0.0330311 0.03255171 -0.056400146 0.22600946 -0.11332016 -0.29774413
0.016230434 -0.20229267 0.060814187 -0.3916733 0.5088095 -0.0911883 -0.21458851 -0.18916424
0.29022714 0.3070461 -0.21935824 -0.16795792 0.010401626 -0.12461175 -0.37354174 0.15945631
-0.15275475 -0.12757845 -0.54075944 0.2763743 -0.33455303 -0.04208586 -0.27866954 0.2387767
0.08361507 -0.030892929 0.012069138 -0.20044558 0.06424909 -0.2062888 -0.5055668 -0.020738069
-0.32640472 0.038451605 0.19194108 -0.090389535 0.15227188 0.078521736 0.22893134 -0.2147496
0.118977204 -0.25096816 0.14797975 0.1313683 0.21236622 -0.09370264 0.23971887 0.07975362

bias f4 [1201]
00000000: ff50 64bf 95da a4bf 67d9 143e 0303 083f
00000010: a70b f53d b398 633e cac2 e23d c320 663e
00000020: 5427 083e c6ce 863e 84c6 a13e 7014 a23e
00000030: 94f6 fc3d e4c5 533e 4dc5 bdbe ef8d 2f3d
00000040: e411 913d ab09 8d3b ee33 5a3d 9dfe b23c
00000050: d30b 893e e498 95be 3f54 bbbd 1227 28be
00000060: dd07 6c3e af88 8c3e ebe9 b83d ab04 24bd
00000070: 3446 ad3d 69f2 66be 67a5 c0be 8e19 49be
00000080: b28e 233e ddfc 96be 1d1c c7be 119a 5ebe
00000090: 9f08 36be 8286 13bb 7e37 c73d c041 97be
000000a0: 053a 25bd c34a 1cbe 5e88 493e 8956 e03d
000000b0: 1bc7 bf3b 4a78 a33d 71e3 ecbd 238e 4ebe
000000c0: bf3f dabd 625b 8c3d f09d 873d 21c8 c4be
000000d0: 0c6d 9a3d c9ec 9f3d af9f 4fbe 48d8 3a3d
000000e0: 809f 27be 39b0 23be 315f f5bd e885 33be
000000f0: 7e0d 2bbe 4608 433d 77bc a4bd eac9 a8bc
00000100: f542 a9be 671d 0f3d 56bb 9d3d 4c01 42bc
00000110: 2650 bfbe 3739 8bbe 3b42 43bd 4946 8fbe
00000120: e545 fdbe 9f1f 2e3d 73bf e2bd 7e31 3cbe
00000130: 6f3c 6fbd 10ee 91bc e1d5 d6bd e041 d0bc
00000140: 42a7 09bd 7225 83be c53d ecbd bc14 b0bd
00000150: 1113 09be a2e0 e1be 47d3 9dbe 0b50 a7be
00000160: 7d27 ee3b 1d7f 9ebd 3298 33bd 925a 27bc
00000170: 2d70 303d 5bf1 85be e759 afbe c179 05be
00000180: f15f 70be 4fd7 d63c 0a12 053d bbc8 84be
00000190: c81e 82bd 31a5 8dbe ae5f 81bd 3e12 02bf
000001a0: 21e4 c0bd db11 f4bd 7516 89be b2e8 84be
000001b0: dd56 28be d759 40be 461c 76be a531 8fbe
000001c0: 0963 c0bd e553 60be 7534 86be 6f35 983c
000001d0: 8ec0 e4be 6df7 babc 80b1 2abe c4c9 4cbe
000001e0: f083 33be 64af 9abd edad 95be eea0 e4bd
000001f0: f7ab bdbe 8c3e 96bd cf83 1ebe 079c 40be
00000200: b775 d0bd d3ca a8be 6d25 06be 2f17 62bd
00000210: c8f8 8ebe 89d3 5ebe a9da 56be 43e1 57be
00000220: 6de6 013e ca91 1ebe 10c5 34be 4616 33be
00000230: 7bf8 02be 5465 27be 470e b8be d096 aabe
00000240: 55ab e9be 917f 46be 6363 dabe f6f5 7fbe
00000250: 8f8c 1dbb 4556 8fbe 179c 08be bd82 b0be
00000260: 14b7 70be 1573 a2be 5f86 cebd 1c13 b7bd
00000270: 7d44 adbe 79c2 3ebe 9d8c f2bd 8652 7dbe
00000280: 10a1 b3be 6259 d5be ff59 53be e810 9dbe
00000290: 4041 87be e682 7bbe c74d a7bc f325 a6be
000002a0: 18cb 8ebe 1c12 76be 482b eb3c b83d d9bd
000002b0: 5720 6dbe 7c0e 8ebe 0b76 d9bc 6d46 bdbd
000002c0: 14f0 37be 0e14 38be 492a d4be 0e05 0dbe
000002d0: 76f2 8abe 1fc9 dcbd 02cd 60be ec2a b73c
000002e0: b852 81be 0ff1 5abe 26a8 91be 4d1a d3be
000002f0: f5fa d4be 6676 8fbe db1a 92be 462e 9dbe
00000300: 5185 d2be 0678 febe 23b9 d1be f3c6 91be
00000310: fe13 a2be 3546 cdbd 0b5b c4bd 6e74 e7bd
00000320: 7e29 40be 56b6 8bbe 9042 0bbe 8790 b3bd
00000330: 4c80 42be f9bf 04be 7233 bdbd 987b 91bd
00000340: 89df ef3d 12fb 3fbe 2412 6cbe b9c9 0b3c
00000350: 2510 13bf a988 41be 6afe 8cbe e0eb 4abe
00000360: 9535 30be d84c 2cbe 4750 b0be c7d7 83be
00000370: 97a5 a2be 1bd9 6cbd 10ad 97be fe8d 10be
00000380: c41d 5cbe f36e c0be 2a25 8cbe fd4c 4dbe
00000390: ffc3 24bd 06ea c6be 66bc 8abe d5d2 d8be
000003a0: fad4 6bbe 9fd5 22be 5d10 9bbe a251 eebe
000003b0: 4143 0fbe c3c1 19be 2abb 8bbe 795f 95be
000003c0: 9db8 d7be 5b5a 98bd 2ca6 dfbe cd76 4ebe
000003d0: 480a acbe 5ded c0be 338f 4bbd 0a63 30be
000003e0: a3b9 03be e90d 53be 38a8 acbe f527 b8be
000003f0: 8b51 e1be 6fe8 8dbd ba8f 06be 22bd b1bd
-0.8918609 -1.2879206 0.14536057 0.53129596 0.11965113 0.22226219 0.11072309 0.22473435
0.13296252 0.2632963 0.31596768 0.31656218 0.123517185 0.20680958 -0.3706459 0.042859968
0.070834905 0.004304131 0.05327218 0.021849925 0.26766834 -0.2921821 -0.09146928 -0.16421154
0.23049875 0.2744803 0.09028991 -0.040043514 0.08460656 -0.2255341 -0.37626192 -0.19638655
0.15972403 -0.29489794 -0.38888636 -0.21738459 -0.17776726 -0.0022510593 0.09727381 -0.2954235
-0.040338535 -0.15262894 0.19680926 0.10954005 0.0058525926 0.07981928 -0.115668185 -0.20171408
-0.1065669 0.068533674 0.06621921 -0.38433936 0.0754033 0.07808835 -0.20275758 0.045616418
-0.16369438 -0.15985192 -0.11981047 -0.1753155 -0.16704366 0.047615312 -0.08043759 -0.020604093
-0.33058897 0.03494015 0.07701747 -0.0118411295 -0.37365836 -0.2719209 -0.047670584 -0.2798331
-0.49467388 0.042510625 -0.11071672 -0.18378255 -0.058407243 -0.017813712 -0.10490013 -0.025422037
-0.033606775 -0.25614506 -0.11535219 -0.08597705 -0.1338618 -0.44116694 -0.30825254 -0.32678255
0.007267891 -0.07739089 -0.043846317 -0.010214465 0.04307573 -0.26160702 -0.34248278 -0.13034727
-0.23474099 0.026225714 0.032487907 -0.25934395 -0.06353527 -0.27665094 -0.063170776 -0.50809085
-0.09418512 -0.11917468 -0.26774946 -0.25958782 -0.16439386 -0.18784271 -0.24034223 -0.27967563
-0.093938895 -0.21907003 -0.26211897 0.018580167 -0.44678158 -0.02282306 -0.16669273 -0.19998842
-0.17530799 -0.07552984 -0.29234257 -0.111635074 -0.3704526 -0.073361486 -0.15479968 -0.1880952
-0.10178702 -0.32967243 -0.13100214 -0.05519789 -0.2792418 -0.21760382 -0.2098185 -0.21082024
0.12685557 -0.15485302 -0.17653298 -0.17488965 -0.127901 -0.16347247 -0.35948393 -0.33318186
-0.45638528 -0.193846 -0.4265395 -0.2499617 -0.0024040078 -0.27995506 -0.13340794 -0.34474745
-0.23507339 -0.31728426 -0.10084223 -0.08939192 -0.33841315 -0.18628873 -0.11843226 -0.24738511
-0.35083818 -0.41669756 -0.206398 -0.3067696 -0.2641697 -0.24561653 -0.02042283 -0.32450828
-0.27889323 -0.24030346 0.028707162 -0.10607475 -0.23156868 -0.27745426 -0.026545545 -0.09241948
-0.17962676 -0.179764 -0.4143851 -0.1377146 -0.27138108 -0.10780548 -0.21953204 0.022359334
-0.25258422 -0.21381019 -0.284486 -0.41231003 -0.41597715 -0.28020018 -0.28536114 -0.30699366
-0.41117337 -0.49700946 -0.4096156 -0.284721 -0.31655878 -0.100231566 -0.095876776 -0.11301504
-0.18765828 -0.2728755 -0.1359961 -0.08767801 -0.18994254 -0.12963857 -0.09238328 -0.07103652
0.11712558 -0.1874812 -0.23053795 0.008531981 -0.5744651 -0.18899788 -0.27537853 -0.19816542
-0.1720794 -0.16826189 -0.34436247 -0.25750563 -0.3176696 -0.057824235 -0.29624224 -0.14116666
-0.2149573 -0.37584648 -0.27372104 -0.200489 -0.04022598 -0.3885042 -0.27096862 -0.42348352
-0.23030463 -0.15901802 -0.30285922 -0.46546656 -0.13990499 -0.1501532 -0.27291232 -0.29174402
-0.42133036 -0.07439109 -0.43681467 -0.20162506 -0.33601594 -0.37681094 -0.049697112 -0.1722528
-0.12863784 -0.20610775 -0.3372209 -0.35967985 -0.44007525 -0.06929099 -0.13140765 -0.08678652
